model_params_old/sr_G.pth (torch, 965112 bytes, 15 tensors)

conv_first.conv_expand.weight f4 [256, 1, 5, 5]
-0.012313376 0.04755328 -0.12448324 0.04148123 0.009082751 -0.18600307 -0.08758973 0.1962829
-0.16438554 0.052524433 0.046717696 -0.17406094 -0.1781899 -0.16567338 -0.16177085 -0.1582386
-0.0118503105 0.09231835 -0.15626653 0.055431567 -0.1416414 -0.1191299 -0.19944474 -0.0452393
0.02343183 -0.12994209 -0.15020664 0.011499132 0.06839548 0.14657639 0.10776409 0.06203878
0.17857197 -0.13283439 0.057767786 0.10570058 0.012670706 -0.10147692 -0.010991391 0.18753672
0.11875025 -0.14542799 -0.005466931 -0.16140528 -0.011588556 -0.091862515 -0.17071143 -0.13862629
0.08154577 0.11314103 -0.18431261 -0.042335216 0.1296379 0.04422689 -0.006775904 -0.17448033
0.17834504 0.094355345 0.14055696 0.15410121 -0.13377507 -0.15818532 -0.16498268 0.07446463
-0.03968558 0.062560305 0.076284 -0.0055266945 -0.11664422 0.094378576 0.14637005 0.1779806
-0.11623853 -0.016368132 -0.17005646 -0.058077693 -0.13370468 0.101288565 -0.0870882 -0.004009571
0.024624407 0.17002593 -7.130964e-05 -0.076874584 0.050896086 0.07477782 -0.16504821 -0.18843965
0.06185255 -0.12414907 0.13732737 0.16783941 -0.14400016 0.040983688 0.19310823 -0.13596645
0.052062795 -0.0035468284 -0.08273696 -0.060994137 0.10446448 -0.052906122 -0.08957027 -0.12586878
0.12317847 0.0999081 -0.14153144 -0.130673 -0.17195165 -0.16670528 -0.012886196 -0.19036733
0.14432485 -0.19689475 0.15927412 0.006762866 -0.16679487 -0.18827602 -0.06882457 0.047522884
-0.0007315079 0.11616594 0.17679013 0.1941286 -0.12632129 0.05183965 0.005181906 0.12635237
-0.015296472 0.07591711 0.12279376 0.16002102 0.11049007 0.0094791185 -0.108122 0.11212272
-0.16877277 -0.002068091 0.1953387 -0.05949904 -0.01386338 -0.06555435 0.008845276 -0.07044502
0.13521254 0.103365764 -0.032173704 -0.17385046 -0.1801962 -0.13255791 -0.024879325 0.096217245
-0.122728735 0.15577799 0.16635355 -0.07766872 0.123828694 0.11676568 0.09035323 0.13693644
-0.032798756 -0.15644337 0.12881944 -0.009900337 -0.17024538 0.03300039 0.10260616 -0.1633806
0.14133348 0.18535301 0.17114 0.1758796 0.13531713 -0.18146192 0.17870282 0.0705975
-0.05984678 -0.08117728 -0.12647982 0.18470775 0.023721851 0.03245261 -0.08106713 -0.0075874296
-0.07011188 -0.09004902 -0.029800057 -0.022634517 0.09532728 0.15252201 -0.13031839 -0.041666504
0.0056957584 -0.11892361 -0.19963916 0.15861087 -0.0725661 0.16117355 -0.19941637 0.18906231
-0.12894838 0.0031465795 -0.1964994 0.008572302 0.098369844 -0.10601984 -0.07215776 0.16451338
-0.041501917 -0.022008419 -0.13940936 0.16799664 -0.06028571 0.15431839 -0.18650801 0.1593885
-0.122449465 -0.02553809 -0.050961487 0.025555518 -0.14211707 -0.08915608 -0.12405706 -0.094378434
-0.056243695 -0.036419712 0.13061975 0.12354027 0.16135962 0.17922066 0.058803316 0.09752276
0.18684897 0.14446941 0.053870127 0.07982299 -0.09483843 0.07768167 -0.1986598 0.13218059
-0.034639005 0.006834087 -0.043338664 -0.052668955 -0.07052975 0.031546555 0.1392443 -0.059944972
-0.120046414 -0.12261281 0.12244784 -0.013845093 0.14190832 -0.17261022 -0.041375548 0.06039828
00000000: 0bbe 49bc 3ac7 423d 12f1 febd 39e8 293d
00000010: d2cf 143c 9777 3ebe 3f62 b3bd 62fe 483e
00000020: af54 28be dc23 573d 0e5b 3f3d 083d 32be
00000030: 6a77 36be 48a6 29be 42a7 25be 4d09 22be
00000040: ce27 42bc 6711 bd3d 5504 20be 360c 633d
00000050: 710a 11be 61fa f3bd 3e3b 4cbe d84c 39bd
00000060: 1cf4 bf3c 8a0f 05be c5cf 19be db66 3c3c
00000070: ee12 8c3d 1f18 163e 6bb3 dc3d 601c 7e3d
00000080: 92db 363e bd05 08be ea9d 6c3d 8c79 d83d
00000090: cb98 4f3c 22d3 cfbd 3c15 34bc a009 403e
000000a0: 5533 f33d 13eb 14be f123 b3bb 6d47 25be
000000b0: eddd 3dbc 6a22 bcbd face 2ebe 0df4 0dbe
000000c0: 7801 a73d 7cb6 e73d 72bc 3cbe b167 2dbd
000000d0: ccbf 043e 4127 353d 6708 debb f9aa 32be
000000e0: 15a0 363e 603d c13d 2aee 0f3e b5cc 1d3e
000000f0: 55fc 08be 55fb 21be 38f1 28be e980 983d
00000100: 598d 22bd 9e1f 803d c93a 9c3d 4619 b5bb
00000110: 2ae3 eebd 8e49 c13d 08e2 153e 8c40 363e
00000120: 770e eebd 7616 86bc 4823 2ebe e0e2 6dbd
00000130: e1e9 08be 6170 cf3d 4c5b b2bd b862 83bb
00000140: 20b9 c93c 471b 2e3e 128c 95b8 6c70 9dbd
00000150: 6a78 503d 1d25 993d 6602 29be 53f6 40be
00000160: 1959 7d3d de41 febd 8c9f 0c3e 18de 2b3e
00000170: c774 13be 83de 273d 2abe 453e ca3a 0bbe
00000180: cc3f 553d e871 68bb ff71 a9bd fdd4 79bd
00000190: 79f1 d53d 17b4 58bd 9e70 b7bd bfe3 00be
000001a0: fe44 fc3d 9e9c cc3d 9eed 10be 25cf 05be
000001b0: 1814 30be cab4 2abe a020 53bc a7ef 42be
000001c0: e5c9 133e c79e 49be c118 233e 089b dd3b
000001d0: 46cc 2abe 6ecb 40be e5f3 8cbd 5ba7 423d
000001e0: aac2 3fba 69e8 ed3d 7908 353e a6c9 463e
000001f0: 5e5a 01be d055 543d facc a93b 8462 013e
00000200: 0e9e 7abc 6e7a 9b3d 4b7b fb3d 8ddc 233e
00000210: 9e48 e23d 4e4e 1b3c 116f ddbd 99a0 e53d
00000220: c5d2 2cbe cf88 07bb de06 483e 44b5 73bd
00000230: 3b23 63bc 5c41 86bd c7eb 103c 7b45 90bd
00000240: 2875 0a3e 6eb1 d33d 93c8 03bd db05 32be
00000250: 5a85 38be 43bd 07be bacf cbbc 8c0d c53d
00000260: 3459 fbbd 4484 1f3e 9658 2a3e c710 9fbd
00000270: e699 fd3d d822 ef3d 1d0b b93d 1139 0c3e
00000280: fd57 06bd b132 20be 3ee9 033e 0635 22bc
00000290: ce54 2ebe 6b2b 073d 2e23 d23d 3e4d 27be
000002a0: b9b9 103e 2ecd 3d3e 533f 2f3e c819 343e
000002b0: 9390 0a3e 27d1 39be dffd 363e 6c95 903d
000002c0: e621 75bd 4640 a6bd ed83 01be 0724 3d3e
000002d0: 5454 c23c 07ed 043d 8606 a6bd f99f f8bb
000002e0: d196 8fbd 9f6b b8bd 401f f4bc 066c b9bc
000002f0: f33a c33d bb2e 1c3e 2f72 05be 7faa 2abd
00000300: 7ca3 ba3b 398e f3bd 356e 4cbe e36a 223e
00000310: 899d 94bd ae0a 253e ce33 4cbe 8d99 413e
00000320: 0b0b 04be d836 4e3b 2437 49be d772 0c3c
00000330: 2176 c93d ee20 d9bd 73c7 93bd 3276 283e
00000340: eafd 29bd 004b b4bc 54c1 0ebe 5007 2c3e
00000350: 26ee 76bd a405 1e3e f5fb 3ebe bd36 233e
00000360: c9c6 fabd 4235 d1bc febc 50bd ce59 d13c
00000370: 2387 11be 7697 b6bd a111 febd 7b49 c1bd
00000380: ca5f 66bd d62c 15bd 2fc1 053e ae02 fd3d
00000390: 753b 253e 9f85 373e bfdb 703d 03ba c73d
000003a0: 5655 3f3e caef 133e eca6 5c3d 3c7a a33d
000003b0: a73a c2bd 9117 9f3d 7a6d 4bbe 595a 073e
000003c0: a1e1 0dbd 7af0 df3b e283 31bd 67bb 57bd
000003d0: e771 90bd f636 013d 0f96 0e3e dc88 75bd
000003e0: e5da f5bd 6d1c fbbd efc5 fa3d 87d6 62bc
000003f0: 6a50 113e bcc0 30be 6879 29bd 3064 773d

conv_first.conv_squeeze.weight f4 [16, 256, 1, 1]
-0.028019885 -0.00027272713 0.044493027 -0.053381678 -0.033375595 0.05214246 0.05198343 0.017451864
-0.04032558 -0.058829267 0.03862684 -0.0063974364 0.013493487 0.03508311 -0.063138805 0.0050970814
0.061940156 -0.06205783 0.030508222 0.034061186 0.015643355 0.059709687 0.019941283 -0.0073429667
0.027733006 0.0128368875 -0.00032524057 0.031275265 -0.017020864 0.002227413 -0.007929586 -0.009248878
-0.058929175 -0.043715302 0.03606828 -0.015361963 -0.03937852 0.0023461517 0.0047902674 -0.034819994
0.01256073 0.05068926 0.018853692 0.009242462 -0.05273941 0.045182426 0.0048838817 0.031927854
-0.033433713 0.022983251 0.0297864 -0.00019271199 -0.017398687 0.016251024 0.03600925 -0.044570927
-0.04079223 -0.05334759 -0.004485178 0.045253247 0.046274547 0.026462467 -0.0033621083 -0.026019828
0.04242144 0.004901069 -0.017155312 -0.019916486 0.047038782 0.047042232 -0.048392594 0.02724699
-0.03215168 -0.05077151 -0.050551195 -0.040996198 0.004513129 -0.067026384 -0.027961401 -0.026288176
-0.032983083 0.00090709847 -0.007320468 -0.03311583 -0.049637046 -0.014379427 0.018766187 0.061641227
0.009596738 0.021701593 0.0012062824 0.017535955 0.024211867 0.030759744 -0.04977489 0.026938088
-0.0067274193 0.047497794 -0.05985946 -0.046568953 -0.0076983194 -0.0436494 -0.03724511 0.025645435
0.0041751345 -0.0060917363 0.0050597647 -0.015132132 0.024197813 -0.003809491 0.028753093 -0.014022589
0.039236385 -0.0030852077 0.017723441 0.020156333 0.0071965307 0.0075157466 0.00661843 0.038808428
-0.042696662 0.004152405 0.03553248 0.018251006 0.002107776 -0.031107666 -0.04142127 -0.03769145
0.003939898 0.05536723 0.00972822 0.03412893 0.0134755755 0.04183577 0.046012968 -0.032134514
0.049308933 -0.010317116 0.056160506 0.060451996 0.059933703 -0.0618696 -0.010854311 0.04408865
-0.06668761 0.042254794 -0.0022868216 -0.048133414 0.055457667 -0.044815313 0.052845884 0.008455429
-0.05839164 -0.008165443 0.046725884 0.013332008 0.056061 0.05387262 -0.04654549 0.027667124
-0.058312673 -0.022388088 -0.052910063 -0.006135038 0.027260507 -0.018219056 0.019362295 0.027330711
-0.050820243 -0.052676074 0.0037381193 0.038810063 -0.057645723 -0.0023429173 0.0011488677 -0.009247425
-0.059969965 0.056653067 -0.028831923 -0.005889913 -0.047784545 -0.01828494 -0.059031952 -0.017082138
0.05057584 0.0061823456 0.049962256 -0.016376417 0.03932066 0.04325778 -0.053001147 0.026950313
-0.013909602 -0.028484054 -0.02341498 0.05134467 0.031403046 0.0285635 -0.038925923 0.057784658
-0.033366736 0.058989238 -0.039255023 -0.017353248 0.060035996 0.02766642 0.01973604 -0.019893998
-0.049810767 -0.046726644 -0.009978307 0.01755441 0.014566004 0.009627123 0.007748631 0.0424219
0.045973726 -0.004453745 0.05835388 0.045371257 0.02863505 -0.006318445 -0.0031378935 0.02201956
0.053741973 0.033162136 0.030198028 0.0003524838 0.059380032 -0.060048703 0.014587115 -0.04250023
0.01827649 0.006109768 0.010232473 -0.055771537 0.056142583 -0.02292386 0.059512645 -0.0028157728
0.0007693648 -0.019076481 0.0046208315 0.009113422 -0.05965556 0.036040466 -0.018133508 -0.01579649
0.049272947 -0.010687659 -0.03832653 -0.033662178 -0.054793287 -0.011396264 -0.060190935 0.03812658
00000000: f589 e5bc d1fc 8eb9 523e 363d bfa6 5abd
00000010: d9b4 08bd 5593 553d 94ec 543d 36f7 8e3c
00000020: 6f2c 25bd f5f6 70bd 2d37 1e3d 96a1 d1bb
00000030: c913 5d3c 4fb3 0f3d eb4e 81bd 6b05 a73b
00000040: f6b4 7d3d 5a30 7ebd 61ec f93c be83 0b3d
00000050: 7e26 803c 2592 743d e75b a33c 459d f0bb
00000060: 5430 e33c cf51 523c 0d85 aab9 7e1a 003d
00000070: 576f 8bbc caf9 113b 18eb 01bc 9b88 17bc
00000080: b85f 71bd d10e 33bd 55bc 133d beb0 7bbc
00000090: 5f4b 21bd e5c1 193b adf7 9c3b 699f 0ebd
000000a0: 85cb 4d3c 8b9f 4f3d 0f73 9a3c b26d 173c
000000b0: 4805 58bd 3511 393d f808 a03b c8c6 023d
000000c0: caf1 08bd 5f47 bc3c 9c02 f43c bb12 4ab9
000000d0: b187 8ebc de20 853c 6f7e 133d 0190 36bd
000000e0: c115 27bd 0183 5abd 66f8 92bb 785b 393d
000000f0: 618a 3d3d d1c7 d83c d156 5cbb 8927 d5bc
00000100: 1bc2 2d3d 2699 a03b 4c89 8cbc e627 a3bc
00000110: bdab 403d 5baf 403d 5037 46bd 1435 df3c
00000120: 7bb1 03bd c9f5 4fbd c50e 4fbd a1eb 27bd
00000130: dfe2 933b 2145 89bd 4f0f e5bc 4d5a d7bc
00000140: 4519 07bd 59ca 6d3a 89e0 efbb 77a4 07bd
00000150: 3750 4bbd b097 6bbc 8cbb 993c 837b 7c3d
00000160: a33b 1d3c 8ac7 b13c 1f1c 9e3a 90a7 8f3c
00000170: f757 c63c dcfb fb3c c1e0 4bbd 44ad dc3c
00000180: af71 dcbb 0c8d 423d 312f 75bd 16bf 3ebd
00000190: 2f42 fcbb b7c9 32bd 548e 18bd 6016 d23c
000001a0: 91cf 883b 309d c7bb 62cc a53b c3ec 77bc
000001b0: 7e3a c63c a7a8 79bb 9b8b eb3c 00bf 65bc
000001c0: 55b6 203d 3231 4abb c030 913c e51e a53c
000001d0: e0d0 eb3b a746 f63b 6adf d83b 96f5 1e3d
000001e0: b2e2 2ebd e610 883b 818a 113d 2283 953c
000001f0: 9d22 0a3b 81d5 febc 5aa9 29bd 5a62 1abd
00000200: 431a 813b c0c8 623d 1d63 1f3c c7ca 0b3d
00000210: a9c8 5c3c fc5b 2b3d 1878 3c3d 7b9f 03bd
00000220: 2af8 493d 1f09 29bc 8f08 663d 839c 773d
00000230: 0b7d 753d fa6a 7dbd 48d6 31bc 4d96 343d
00000240: 8393 88bd 5d13 2d3d 80de 15bb 8b27 45bd
00000250: 9427 633d 4390 37bd ed74 583d a488 0a3c
00000260: 132c 6fbd 5ac8 05bc a463 3f3d 7f6e 5a3c
00000270: 38a0 653d 89a9 5c3d 7ca6 3ebd 2aa6 e23c
00000280: 45d9 6ebd 3967 b7bc 39b8 58bd 6e08 c9bb
00000290: 6d51 df3c 2140 95bc ad9d 9e3c a8e4 df3c
000002a0: e328 50bd dec2 57bd 3cfb 743b 4df7 1e3d
000002b0: ec1d 6cbd a18b 19bb 9a95 963a 8382 17bc
000002c0: 11a3 75bd 0c0d 683d ed30 ecbc 2c00 c1bb
000002d0: bab9 43bd 4cca 95bc 7dcb 71bd d7ef 8bbc
000002e0: 9d28 4f3d 4695 ca3b 39a5 4c3d d627 86bc
000002f0: b30e 213d 122f 313d bb17 59bd e7c6 dc3c
00000300: 19e5 63bc 6457 e9bc c6d0 bfbc ca4e 523d
00000310: 7ba0 003d 00fe e93c ca70 1fbd 9baf 6c3d
00000320: 8fab 08bd b39e 713d e0c9 20bd 6628 8ebc
00000330: 4ee8 753d b0a4 e23c 7aad a13c bdf8 a2bc
00000340: 6006 4cbd 7064 3fbd 0e7c 23bc 44ce 8f3c
00000350: 40a6 6e3c 15bb 1d3c 3ae8 fd3b 96c2 2d3d
00000360: f24e 3c3d b9f0 91bb 7a04 6f3d 36d7 393d
00000370: 0d94 ea3c f50a cfbb 1ea5 4dbb 5d62 b43c
00000380: 8b20 5c3d 05d5 073d db61 f73c 93cd b839
00000390: 7a38 733d a1f5 75bd cbfe 6e3c b914 2ebd
000003a0: 94b8 953c 7334 c83b 1aa6 273c b270 64bd
000003b0: c4f5 653d d2ca bbbc 88c3 733d d488 38bb
000003c0: 33af 493a 4846 9cbc 586a 973b 7650 153c
000003d0: 6359 74bd 2b9f 133d b98c 94bc a467 81bc
000003e0: 6ed2 493d 4a1b 2fbc 48fc 1cbd 5ae1 09bd
000003f0: ed6e 60bd 65b7 3abc c58a 76bd 9e2a 1c3d

conv_first.conv_squeeze.bias f4 [16]
-0.05571436 -0.0021513335 0.0031606562 0.022939887 0.03892658 0.04804245 0.021133585 -0.018183844
-0.021491215 0.026216365 0.02683534 0.015694477 0.0012443054 0.021204293 -0.04787001 0.056840166
00000000: be34 64bd 63fd 0cbb 0323 4f3b 6eec bb3c
00000010: 7a71 1f3d 29c8 443d 5720 ad3c 49f6 94bc
00000020: 580e b0bc b4c3 d63c c9d5 db3c b491 803c
00000030: f617 a33a a0b4 ad3c 5813 44bd 3cd1 683d

residual_block.0.conv_expand.weight f4 [256, 16, 3, 3]
0.043078598 -0.042266093 0.030097254 0.046088822 -0.007962301 0.06494506 -0.021460168 0.03273984
-0.0560101 0.07090544 0.06091914 -0.022175182 0.05446299 -0.0430537 -0.011826842 -0.05387612
0.06722956 0.035143506 -0.050435536 -0.013228476 0.08927728 0.06909304 -0.036098484 -0.0017244131
0.02299698 -0.077697285 0.037065346 -0.07503382 -0.01567384 0.036289874 -0.06758011 0.02802102
0.07119747 0.04837613 -0.011456856 0.03360691 -0.026612755 -0.01745039 0.01645727 -0.021654863
-0.0071893567 -0.053024054 -0.030530391 -0.07037281 -0.011863964 0.021452911 -0.027203046 0.032620605
0.04888252 -0.045086417 -0.07511095 -0.023739606 -0.001915823 -0.0627034 0.0455014 0.021455899
-0.056806687 7.664547e-05 -0.08650511 0.016380984 -0.08503241 -0.005205661 0.068587445 0.05715848
-0.048268307 -0.049152862 -0.03535635 -0.0030361717 -0.06947994 -0.032185562 0.04406961 0.00927108
-0.016250357 -0.16407883 -0.047486693 -0.047780644 -0.039668605 -0.13276604 -0.13668367 0.024929713
0.006399795 -0.0804993 0.059432905 -0.027845839 0.03109479 -0.03775155 0.07431038 -0.002613995
0.08314184 -0.039831784 0.037418053 -0.079448685 0.030699946 -0.009355748 -0.06714925 -0.05641251
0.05434813 0.014018641 -0.030222753 -0.071397066 0.071826 -0.059531227 -0.03307457 0.07026881
-0.066764034 -0.032476515 -0.025494087 0.06820191 0.061915763 0.027012551 -0.03353238 0.04792219
0.06764121 -0.068779364 -0.012414879 -0.0045347936 0.016374351 -0.050107513 0.0016473964 -0.011724644
0.0017696331 0.05564363 -0.034593 0.038950406 -0.044510324 -0.038197216 -0.031500667 -0.0764322
0.0067925104 -0.075859964 -0.07052255 0.00084051857 -0.023808124 -0.059769884 0.063473865 -0.021628926
-0.022012783 -0.006775419 0.060192306 0.041452967 0.04254781 -0.028501729 -0.0050341086 -0.08205186
-0.020871973 -0.016602956 0.042042863 0.06501791 0.06279551 -0.024965495 -0.043068685 -0.013649732
0.0020823898 -0.041964352 0.01968366 0.032576684 -0.0026466516 0.0033138322 -0.03548075 -0.082832366
-0.074166454 -0.073262885 0.0039279065 0.08165589 -0.09438956 0.06560433 0.046442095 0.023280237
0.016711703 -0.038148396 -0.068741634 -0.06776247 -0.047596663 -0.0763017 0.03673774 -0.06901747
0.02977872 -0.07114885 -0.053328536 0.027700797 -0.05498362 -0.006099384 0.06964677 -0.0721296
-0.08531545 -0.017970573 0.016189141 -0.065454066 -0.013184336 -0.03849481 -0.03902745 -0.06658818
-0.025773732 0.025749262 -0.051793274 -0.061529294 -0.07282112 -0.059562214 -0.10156794 -0.033959888
-0.010518486 0.02325072 0.020160118 0.041920383 0.05045305 -0.050851908 -0.06972613 0.060673367
0.01921455 -0.020505005 -0.054543227 -0.071910754 0.02146915 0.062872075 0.07796172 0.05016759
-0.0017989245 -0.027716212 0.013905348 0.1361521 0.075129904 0.08235832 -0.0056372546 0.0026035968
0.06275711 0.033402283 0.07924866 -0.051721953 0.0017610538 -0.07284081 -0.062545516 0.047171336
-0.082994565 -0.009003467 0.039334524 0.08237781 0.049675453 0.04925954 -0.07980176 0.024920216
0.06025697 -0.044632725 0.07154481 -0.02146228 -0.061336186 0.019711595 -0.021569666 -0.04805872
0.021060754 0.017630275 0.0049484367 0.0727355 0.049878884 0.0073191887 -0.020419262 0.0746641
00000000: 2f73 303d 361f 2dbd 848e f63c a2c7 3c3d
00000010: 5074 02bc ea01 853d 3ccd afbc 361a 063d
00000020: d96a 65bd df36 913d 5986 793d baa8 b5bc
00000030: 9614 5f3d 1459 30bd 5fc5 41bc 35ad 5cbd
00000040: a7af 893d a3f2 0f3d 7e95 4ebd 40bc 58bc
00000050: 02d7 b63d a780 8d3d 01dc 13bd b405 e2ba
00000060: 2a64 bc3c c11f 9fbd d5d1 173d 55ab 99bd
00000070: 6d66 80bc b1a4 143d 7167 8abd 578c e53c
00000080: fbcf 913d 0d26 463d 89b5 3bbc 66a7 093d
00000090: fe02 dabc 1ff4 8ebc 66d1 863c 8a65 b1bc
000000a0: b294 ebbb c02f 59bd df1a fabc 9f1f 90bd
000000b0: 1261 42bc 04be af3c ecd8 debc 2f9d 053d
000000c0: 0a39 483d 89ac 38bd c5d3 99bd 9079 c2bc
000000d0: 5a1c fbba a46a 80bd ad5f 3a3d 48c4 af3c
000000e0: 21ae 68bd b9bc a038 9729 b1bd 6a31 863c
000000f0: 7925 aebd 4094 aabb 9377 8c3d 031f 6a3d
00000100: fdb4 45bd 8354 49bd d2d1 10bd 82fa 46bb
00000110: 804b 8ebd 02d5 03bd 5682 343d bae5 173c
00000120: 781f 85bc 4804 28be 6881 42bd a3b5 43bd
00000130: 8c7b 22bd d2f3 07be cef6 0bbe 6639 cc3c
00000140: 5fb5 d13b d1dc a4bd eb6f 733d f51c e4bc
00000150: 80ba fe3c 5fa1 1abd 0a30 983d 8f4f 2bbb
00000160: 4546 aa3d a726 23bd ac43 193d feb5 a2bd
00000170: 747e fb3c da48 19bc 8c85 89bd ce10 67bd
00000180: 259c 5e3d 71ae 653c b595 f7bc a038 92bd
00000190: 8319 933d 04d7 73bd 3379 07bd 18e9 8f3d
000001a0: 95bb 88bd 1806 05bd fad8 d0bc 71ad 8b3d
000001b0: 629b 7d3d 6d49 dd3c 4059 09bd 0f4a 443d
000001c0: 7a87 8a3d 32dc 8cbd c767 4bbc 9b98 94bb
000001d0: 8123 863c 893d 4dbd 73ed d73a b918 40bc
000001e0: 09f3 e73a 93ea 633d 64b1 0dbd 768a 1f3d
000001f0: 7550 36bd af74 1cbd d806 01bd 7c88 9cbd
00000200: b593 de3b 785c 9bbd 206e 90bd 3f56 5c3a
00000210: 4109 c3bc 44d1 74bd 96fe 813d 252f b1bc
00000220: 2754 b4bc 5604 debb 358c 763d 96ca 293d
00000230: 9d46 2e3d 757c e9bc 2af5 a4bb ce0a a8bd
00000240: b3fb aabc ec02 88bc 2335 2c3d 1c28 853d
00000250: ef9a 803d 7084 ccbc ca68 30bd 20a3 5fbc
00000260: b478 083b d0e2 2bbd a03f a13c 216f 053d
00000270: 7273 2dbb e12c 593b 4354 11bd 04a4 a9bd
00000280: 95e4 97bd da0a 96bd abb5 803b 343b a73d
00000290: 504f c1bd 905b 863d 113a 3e3d 32b6 be3c
000002a0: fbe6 883c 7e41 1cbd 6ac8 8cbd 0dc7 8abd
000002b0: b8f4 42bd 1144 9cbd 507a 163d 0859 8dbd
000002c0: 81f2 f33c 7db6 91bd 066f 5abd c8ec e23c
000002d0: 8136 61bd 57dd c7bb f7a2 8e3d afb8 93bd
000002e0: deb9 aebd 0637 93bc 179f 843c c80c 86bd
000002f0: 1d03 58bc bcac 1dbd 3fdb 1fbd 625f 88bd
00000300: 6f23 d3bc 1ef0 d23c 2f25 54bd 2406 7cbd
00000310: 3d23 95bd 82f7 73bd da02 d0bd 8619 0bbd
00000320: ba55 2cbc 4b78 be3c d526 a53c b5b4 2b3d
00000330: dba7 4e3d 174a 50bd 93cc 8ebd a384 783d
00000340: d567 9d3c 1dfa a7bc b868 5fbd f245 93bd
00000350: 12e0 af3c 13c3 803d 65aa 9f3d 887c 4d3d
00000360: e4c9 ebba 1c0d e3bc 42d3 633c 756b 0b3e
00000370: b5dd 993d 7bab a83d b8b8 b8bb 1ba1 2a3b
00000380: cd86 803d d5d0 083d 1f4d a23d 66da 53bd
00000390: 29d3 e63a 902d 95bd dd17 80bd bb36 413d
000003a0: 0ef9 a9bd 4783 13bc 3d1d 213d b2b5 a83d
000003b0: 7d78 4b3d 5fc4 493d 1b6f a3bd 7b25 cc3c
000003c0: 03d0 763d ced0 36bd 1686 923d aad1 afbc
000003d0: a73b 7bbd 367a a13c deb2 b0bc 38d9 44bd
000003e0: 9a87 ac3c 5e6d 903c 7f26 a23b 5af6 943d
000003f0: cd4d 4c3d ced5 ef3b 4c46 a7bc 7ee9 983d

residual_block.0.conv_squeeze.weight f4 [16, 256, 1, 1]
-0.03143557 0.02470451 0.04416566 0.039275598 0.0100574475 0.043699577 -0.018509805 0.017460858
0.01566264 0.03307668 0.034285497 -0.0047533573 0.03949549 -0.042369746 0.021490876 -0.008330405
-0.01529651 0.045110017 0.007923072 0.021906726 0.0014397092 -0.013845587 0.00080269156 -0.02194636
0.060493883 0.026413307 -0.037210204 -0.01427436 -0.029171735 -0.019688642 -0.058595728 0.019226855
0.00846234 0.046213362 -0.057301514 0.05099445 -0.03990443 0.027039574 -0.025142001 -0.02063551
-0.047602206 -0.0052653747 -0.009182345 -0.027155835 -0.014576019 -0.026216999 -0.039283976 -0.011005623
0.06361449 0.052285083 0.028506057 -0.037195653 -0.03216019 -0.004187014 -0.003168083 0.012057622
-0.035074294 0.02700815 -0.040417146 0.06184603 0.0075197704 0.04183439 -0.026077555 0.05617832
0.04246794 0.032580078 -0.05693942 -0.009970909 -0.04262332 0.049907017 -0.04407451 0.060794886
-0.045209426 0.0023766495 -0.008965659 0.019797074 -0.037441377 0.06191428 -0.029644018 -0.043670166
-0.053817328 -0.03244673 0.027396083 0.0019243234 0.03744145 0.0141560985 -0.007142438 0.030375877
-0.049560785 -0.012380683 -0.015854172 -0.03157835 0.025342744 0.038286503 0.0068909926 0.020400014
0.0010348709 -0.047466516 -0.041031055 0.005022802 -0.005056022 -0.006764815 0.05980162 -0.04514828
-0.030000202 0.0026517329 0.014587848 -0.06111237 -0.0033873168 0.054266658 0.028623005 -0.056875505
-0.0343495 0.053529397 0.030440941 0.016303523 -0.0007578583 0.019437293 0.040037535 -0.005502645
0.061031055 0.018273044 -0.012204612 0.023083456 0.044004913 0.03375327 -0.019144706 -0.02109996
-0.021993117 0.0014261133 0.048400696 -0.009907637 0.030405398 0.0065261936 0.029687412 -0.025088673
-0.05257289 -0.017533751 -0.0067589916 0.057858977 0.012752826 -0.055529445 -0.0008481782 -0.005490932
-0.0024988363 -0.005839767 0.03072284 -0.030338746 -0.042611666 -0.010734742 -0.0537776 0.058575463
-0.0012890643 0.007462991 -0.00018898408 -0.05695693 -0.00026135996 -0.056920387 -0.041076418 0.008641836
-0.04756138 -0.046731066 -0.02811495 -0.05309169 -0.050944246 0.0026292768 -0.013513008 -0.0014910208
0.001113535 0.05702754 -0.0041343556 0.02337784 0.009575808 -0.008526269 0.01388086 -0.006150462
0.06341976 0.04193139 0.032487314 0.013995192 -0.04441035 0.020283367 -0.02227629 0.04482805
0.034084417 -0.03409643 0.052172545 -0.012189562 0.046648003 0.050254982 0.045622915 0.04094509
-0.038050067 -0.016915416 0.00613157 0.013734736 -0.059540037 -0.037804477 -0.021159912 0.010541667
-0.057320125 0.010270808 0.03915899 0.04706608 0.03051043 -0.051211175 -0.0016242596 -0.025659846
-0.0037113242 0.041240964 -0.020047348 -0.022812556 0.036294125 -0.029580357 0.025472078 -0.024017997
-0.032374326 -0.047668938 -0.062216226 0.0031677538 0.058545996 0.01034247 -0.0395432 -0.038324676
0.00834046 -0.019248137 -0.041545026 0.019487293 -0.019011818 0.048248317 0.018557388 0.019302826
0.05787996 0.010923952 -0.021882722 -0.01959792 0.059355274 -0.04349962 0.05509136 -0.060301512
0.03664796 0.059795316 -0.05986219 -0.031166542 0.033972498 0.025324782 -0.044411197 -0.030106049
-0.057553023 -0.021022728 -0.0057067885 0.028704965 -0.048961062 0.017992137 0.06177043 -0.05420277
00000000: 96c2 00bd 1d61 ca3c 0de7 343d 73df 203d
00000010: fec7 243c 54fe 323d e0a1 97bc 130a 8f3c
00000020: f04e 803c 6a7b 073d f36e 0c3d 0dc2 9bbb
00000030: 06c6 213d e68b 2dbd a20d b03c 407c 08bc
00000040: 379e 7abc 48c5 383d c6cf 013c bc75 b33c
00000050: a0b4 bc3a 9ad8 62bc b86b 523a dac8 b3bc
00000060: 6fc8 773d b860 d83c ba69 18bd 01df 69bc
00000070: 90f9 eebc 134a a1bc 1302 70bd a381 9d3c
00000080: a0a5 0a3c 394a 3d3d feb4 6abd 8edf 503d
00000090: d472 23bd 1982 dd3c 99f6 cdbc cd0b a9bc
000000a0: 88fa 42bd 2a89 acbb 8c71 16bc ea75 debc
000000b0: 41d0 6ebc 08c5 d6bc 3ce8 20bd ee50 34bc
000000c0: 5048 823d e228 563d 8985 e93c 785a 18bd
000000d0: 67ba 03bd 3833 89bb 9d9f 4fbb 558d 453c
000000e0: 10aa 0fbd 3240 dd3c 738c 25bd 4352 7d3d
000000f0: 6868 f63b 8a5a 2b3d 99a0 d5bc 3d1b 663d
00000100: ddf2 2d3d b072 053d 4f39 69bd 065d 23bc
00000110: ca95 2ebd 4d6b 4c3d 7987 34bd 0f04 793d
00000120: 852d 39bd 90c1 1b3b b3e4 12bc 792d a23c
00000130: 215c 19bd d499 7d3d 03d8 f2bc 7ddf 32bd
00000140: 8f6f 5cbd dde6 04bd c06d e03c 9439 fc3a
00000150: 355c 193d fbee 673c 1d0b eabb d5d6 f83c
00000160: 4000 4bbd 59d8 4abc 9ce0 81bc 4d58 01bd
00000170: 969b cf3c 4fd2 1c3d d6cd e13b ee1d a73c
00000180: 81a4 873a 406c 42bd 2e10 28bd 5196 a43b
00000190: fdac a5bb 62ab ddbb 8bf2 743d 67ed 38bd
000001a0: fcc2 f5bc b2c8 2d3b df01 6f3c f750 7abd
000001b0: bffd 5dbb b746 5e3d cb7a ea3c 4af6 68bd
000001c0: 10b2 0cbd a441 5b3d 485f f93c f78e 853c
000001d0: 02ab 46ba f53a 9f3c 66fe 233d 884f b4bb
000001e0: b3fb 793d 5ab1 953c daf5 47bc 8419 bd3c
000001f0: 7f3e 343d de40 0a3d 5cd5 9cbc d3d9 acbc
00000200: e92a b4bc 6cec ba3a cf3f 463d a453 22bc
00000210: be14 f93c aed9 d53b 0433 f33c c386 cdbc
00000220: ac56 57bd f1a2 8fbc 887a ddbb 89fd 6c3d
00000230: 3bf1 503c d872 63bd 4758 5eba 47ed b3bb
00000240: 84c3 23bb 845b bfbb 77ae fb3c f688 f8bc
00000250: 9289 2ebd c5e0 2fbc e745 5cbd d3ec 6f3d
00000260: d2f5 a8ba 1b8c f43b 072a 46b9 ab4b 69bd
00000270: 2407 89b9 5a25 69bd bf3f 28bd 7d96 0d3c
00000280: b9cf 42bd 1369 3fbd 5351 e6bc ac76 59bd
00000290: eaaa 50bd f24f 2c3b aa65 5dbc 5b6e c3ba
000002a0: 09f4 913a b695 693d 7d79 87bb e282 bf3c
000002b0: dae3 1c3c c4b1 0bbc 8c6c 633c d189 c9bb
000002c0: 38e2 813d 40c0 2b3d 6b11 053d 174c 653c
000002d0: a1e7 35bd 4e29 a63c c47c b6bc 9e9d 373d
000002e0: 1a9c 0b3d b3a8 0bbd e1b2 553d bbb6 47bc
000002f0: fa11 3f3d 2bd8 4d3d 18df 3a3d 0ab6 273d
00000300: 63da 1bbd 3392 8abc 56eb c83b a807 613c
00000310: 41e0 73bd ded8 1abd 8d57 adbc f5b6 2c3c
00000320: 82c8 6abd e446 283c 2d65 203d 5dc8 403d
00000330: 02f1 f93c cfc2 51bd 1ce5 d4ba 9934 d2bc
00000340: b039 73bb 49ec 283d 563a a4bc 66e1 babc
00000350: 26a9 143d 8152 f2bc d2aa d03c 64c1 c4bc
00000360: f19a 04bd 8140 43bd 71d6 7ebd 179a 4f3b
00000370: edcd 6f3d 7773 293c 0df8 21bd 56fa 1cbd
00000380: 6da6 083c 45ae 9dbc 1e2b 2abd d1a3 9f3c
00000390: acbe 9bbc 07a0 453d aa05 983c f620 9e3c
000003a0: 8913 6d3d 60fa 323c 6543 b3bc d18b a0bc
000003b0: 841e 733d a82c 32bd 7aa7 613d b8fe 76bd
000003c0: 2c1c 163d efeb 743d 0e32 75bd fa50 ffbc
000003d0: bf26 0b3d eb75 cf3c 84e8 35bd f6a0 f6bc
000003e0: b8bc 6bbd db37 acbc 0300 bbbb ad26 eb3c
000003f0: 658b 48bd 3f64 933c fe02 7d3d b903 5ebd

residual_block.0.conv_squeeze.bias f4 [16]
-0.03897301 -0.01047665 -0.049760085 -0.048621677 0.03278913 -0.031735476 -0.015773669 -0.019980308
0.06005888 0.008283239 0.04541968 -0.051162563 0.02033224 -0.03921742 -0.052069724 -0.02603071
00000000: 2aa2 1fbd 41a6 2bbc 3bd1 4bbd 8627 47bd
00000010: e54d 063d 0ffd 01bd c837 81bc bead a3bc
00000020: 4d00 763d 6cb6 073c fd09 3a3d d68f 51bd
00000030: cc8f a63c 72a2 20bd 1047 55bd 5b3e d5bc

residual_block.1.conv_expand.weight f4 [256, 16, 3, 3]
0.04172417 -0.058721725 -0.07692615 -0.07280261 0.043489747 0.05074235 0.017457664 0.049260665
0.0009812003 0.06052306 0.013328068 -0.017392585 -0.028730063 0.046038765 0.023265447 -0.051418576
0.062222254 0.0043074046 -0.0052068704 -0.014795833 0.07746063 0.07374202 0.021940958 0.020342251
-0.072687894 -0.07643625 0.039491568 0.07867036 -0.057584964 -0.017086864 -0.058096413 0.035003968
-0.07394401 -0.038685616 -0.08516235 0.0679645 -0.012670346 -0.024266317 -0.010839306 -0.07116382
0.057395432 -0.0044021253 -0.04095923 0.06705503 -0.05165511 -0.03927154 0.056481577 0.05297212
-0.014309039 0.030630935 0.056960482 -0.065932624 0.019155132 0.04918933 -0.066665456 -0.009236733
0.005043627 -0.0034733685 -0.022519613 -0.00049413467 0.07455144 0.08548111 0.08136726 -0.08378667
0.0086841425 0.05499969 -0.0061897626 -0.059540834 -0.052351214 -0.02434036 0.035021737 -0.067673504
0.011887553 -0.04051047 0.0005558754 -0.06672709 -0.01948701 -0.0013238059 0.011977497 -0.025131114
-0.0060539064 0.030059202 -0.0030412676 0.035084583 0.0009286606 -0.005811432 -0.07627351 -0.06793762
-0.011673563 -0.024238067 0.043892115 -0.0068605063 0.008009884 -0.033857673 0.06840101 0.0044423295
0.053352557 -0.0052658007 -0.057628695 -0.04525424 0.07784103 -0.073661506 -0.07559038 -0.044438627
0.04817502 -0.07608782 -0.043566357 -0.0028473118 -0.065197535 0.06087476 -0.0030876624 -0.035665073
-0.03693817 0.010537645 0.020820912 -0.031151174 0.05394207 0.07951463 -0.024006099 -0.0012598152
-0.031226955 0.0074093016 0.056238968 -0.05395858 0.076109275 0.055358462 0.07525668 -0.062378615
0.016413089 -0.07918922 -0.04303642 0.058975887 0.0104771415 0.00917978 0.036478788 0.0065292576
-0.03095449 0.0076732626 0.017037319 -0.010792695 -0.04889195 0.05303259 0.08433755 -0.05160031
0.07280615 0.062655956 -0.025730876 0.068834715 -0.07678006 0.012514353 -0.08096922 -0.06342293
0.08431325 -0.018043492 0.02621878 0.00056435884 0.042452104 -0.04167443 -0.03208005 0.05928132
0.047381684 0.023697045 -0.01226387 -0.024485743 0.088675976 -0.065568164 -0.07494828 0.0660954
0.07815439 -0.033047464 0.062238626 -0.011263786 0.085572995 0.05394732 0.019188525 0.04819364
-0.060838252 -0.06499693 -0.058238696 -0.07053663 -0.057432994 0.068590425 -0.008112912 0.06579242
-0.0521245 0.021866769 -0.003226978 0.091741 -0.04100356 -0.0571318 -0.046764772 0.025696896
0.0907737 0.043020483 -0.05139673 -0.036304213 0.05251505 -0.07173528 -0.020660173 -0.080160305
0.050155267 -0.042044703 -0.058087904 -0.058093 -0.05719213 -0.051167876 0.07715037 -0.066571265
0.04049913 0.02052496 -0.0012948227 -0.04219999 0.008981831 -0.07798225 -0.05484367 -0.014270998
-0.06939843 -0.023350865 0.04552707 0.0072880667 0.041547302 -0.00832088 0.028000962 -0.0052300813
-0.027529296 0.031121535 -0.06296914 -0.01956543 0.031640057 -0.01525039 -0.0810124 -0.029419644
-0.023918055 0.036993608 0.013825683 0.031833053 0.025157487 0.08155358 0.0653138 0.06995457
0.021574873 -0.06298405 0.058850154 0.02630674 -0.0625852 -0.008009803 0.026349008 0.075710595
0.07802718 -0.05867314 -0.048224207 0.059801828 0.08096323 0.045607403 -0.0062759193 -0.0017194425
00000000: f7e6 2a3d 3186 70bd 758b 9dbd 8919 95bd
00000010: 4e22 323d 36d7 4f3d 6003 8f3c 8dc5 493d
00000020: 9e9b 803a 07e7 773d f85d 5a3c e57a 8ebc
00000030: 4f5b ebbc 2593 3c3d 2e97 be3c 499c 52bd
00000040: c3dc 7e3d 2125 8d3b 659e aabb 396a 72bc
00000050: aea3 9e3d 0e06 973d 86bd b33c cba4 a63c
00000060: 64dd 94bd 9c8a 9cbd e9c1 213d ed1d a13d
00000070: 36de 6bbd c0f9 8bbc 81f6 6dbd 5260 0f3d
00000080: f56f 97bd cf74 1ebd 9969 aebd f930 8b3d
00000090: 4897 4fbc 28ca c6bc 5897 31bc 56be 91bd
000000a0: 7917 6b3d b43f 90bb dec4 27bd 2654 893d
000000b0: 4f94 53bd 32db 20bd 3a59 673d 4bf9 583d
000000c0: 7670 6abc baed fa3c 654f 693d af07 87bd
000000d0: 39eb 9c3c c07a 493d e687 88bd ab55 17bc
000000e0: 0345 a53b 74a1 63bb 0d7b b8bc d188 01ba
000000f0: 6dae 983d b810 af3d e1a3 a63d 5898 abbd
00000100: ef47 0e3c 5b47 613d 7ed3 cabb 17e1 73bd
00000110: 3a6e 56bd 6f65 c7bc f472 0f3d 6898 8abd
00000120: 03c4 423c 4eee 25bd 2bb8 113a 36a8 88bd
00000130: 39a3 9fbc 8e83 adba 433d 443c c4df cdbc
00000140: d95f c6bb b73e f63c 0150 47bb dab4 0f3d
00000150: 5c71 733a d36d bebb 4935 9cbd e122 8bbd
00000160: 7942 3fbc e98e c6bc 38c8 333d 19ce e0bb
00000170: e33b 033c 58ae 0abd d415 8c3d f690 913b
00000180: 3688 5a3d bd8c acbb 110c 6cbd 835c 39bd
00000190: 1e6b 9f3d d8db 96bd 21cf 9abd 4705 36bd
000001a0: 2b53 453d eed3 9bbd a372 32bd f799 3abb
000001b0: 4986 85bd d057 793d 615a 4abb 8a15 12bd
000001c0: 7b4c 17bd 16a6 2c3c 9e90 aa3c bf30 ffbc
000001d0: 5cf2 5c3d 91d8 a23d 70a8 c4bc 6220 a5ba
000001e0: accf ffbc bac9 f23b d55a 663d ac03 5dbd
000001f0: 2edf 9b3d 8ebf 623d 2d20 9a3d b880 7fbd
00000200: be74 863c f52d a2bd f546 30bd b390 713d
00000210: 51a8 2b3c ca66 163c c86a 153d 62f3 d53b
00000220: 4594 fdbc fe6f fb3b d991 8b3c d8d3 30bc
00000230: ed42 48bd b338 593d 2ab9 ac3d d95a 53bd
00000240: 641b 953d c451 803d 8fc9 d2bc 37f9 8c3d
00000250: dd3e 9dbd 0009 4d3c 31d3 a5bd e2e3 81bd
00000260: 6dac ac3d f2cf 93bc c4c8 d63c 7bf1 133a
00000270: 42e2 2d3d cfb2 2abd 5f66 03bd f8d0 723d
00000280: 4c13 423d 4e20 c23c 66ee 48bc 5396 c8bc
00000290: c09b b53d 9a48 86bd 7c7e 99bd 065d 873d
000002a0: 690f a03d c75c 07bd eeed 7e3d be8b 38bc
000002b0: e540 af3d ddf7 5c3d 4131 9d3c b266 453d
000002c0: 8831 79bd 1c1d 85bd b38b 6ebd 8275 90bd
000002d0: dc3e 6bbd 2379 8c3d 05ec 04bc 2dbe 863d
000002e0: 8080 55bd f021 b33c b57b 53bb b5e2 bb3d
000002f0: 59f3 27bd 0903 6abd 6b8c 3fbd 4c82 d23c
00000300: 90e7 b93d 3f36 303d 6185 52bd bab3 14bd
00000310: 051a 573d f2e9 92bd 863f a9bc 162b a4bd
00000320: 9c6f 4d3d 1137 2cbd 95ed 6dbd edf2 6dbd
00000330: 4b42 6abd 6895 51bd 0301 9e3d 8456 88bd
00000340: 6ae2 253d f623 a83c 0ab7 a9ba e6d9 2cbd
00000350: 8828 133c 28b5 9fbd c2a3 60bd e7d0 69bc
00000360: c420 8ebd 504a bfbc 987a 3a3d bcd0 ee3b
00000370: 812d 2a3d 4d54 08bc 4662 e53c 1a61 abbb
00000380: 1e85 e1bc 97f2 fe3c f7f5 80bd ae47 a0bc
00000390: 0199 013d c6dc 79bc d4e9 a5bd 7701 f1bc
000003a0: ccef c3bc 9c86 173d 1e85 623c 6063 023d
000003b0: 1317 ce3c 9005 a73d 3ec3 853d 5744 8f3d
000003c0: cabd b03c c8fd 80bd dc0c 713d 3b81 d73c
000003d0: ab2c 80bd 8c3b 03bc e0d9 d73c 280e 9b3d
000003e0: b7cc 9f3d 3f53 70bd bf86 45bd c3f2 743d
000003f0: 0dd0 a53d d4ce 3a3d 3aa6 cdbb eb5e e1ba

residual_block.1.conv_squeeze.weight f4 [16, 256, 1, 1]
-0.0053817052 0.062472984 -0.054659445 -0.04225474 0.051812712 0.04186872 0.04192436 -0.023006901
-0.034980305 -0.020328801 -0.046227206 0.018907059 -0.0010474295 0.02265052 0.0069661257 -0.016707737
0.033303954 0.01661022 0.024520434 -0.0111725805 -0.048086796 -0.05293208 0.032541294 -0.034000672
-0.022626784 0.050643615 -0.011673071 0.058765907 0.03507335 -0.029911317 -0.034830905 -0.0068000723
-0.03974675 0.044250008 0.057164703 -0.057736605 -0.029766433 -0.028959163 -0.009450753 0.015845008
0.054681074 0.0010614853 0.055134427 0.0118552195 -0.015542578 0.03186841 0.029537668 -0.052521694
-0.0112882685 0.058568265 0.007261533 0.04406829 0.04907523 0.040490754 0.040882304 0.050585803
-0.04478237 0.05843441 0.014249091 -0.04575438 -0.0031047785 0.002909346 0.04156484 0.0055261212
0.028669942 -0.058449697 0.007858667 -0.04687879 -0.051228587 0.0555766 -0.026791427 0.060486365
-0.04457204 0.02087061 0.012235642 0.016386298 -0.0487078 -0.035503194 -0.060553093 0.03917102
0.029925684 0.050631978 0.06505748 0.0329177 0.0029162269 0.023903389 -0.05730476 -0.0488934
0.0129198935 0.013163121 0.038037445 -0.05325333 0.019872364 -0.010225505 -0.038928255 0.0010001439
-0.047673974 0.059447303 -0.060761254 0.05140806 0.050126784 -0.05143652 0.020431003 -0.04309282
-0.045452565 -0.008404568 0.05385401 -0.012066068 0.03928489 0.008917715 -0.004853642 0.005461792
0.054143693 -0.061595585 0.036989868 -0.006783932 0.03506564 -0.009445095 0.047092512 -0.035751335
-0.052665554 0.027906736 -0.034905292 0.009972228 -0.03219295 -0.027750319 -0.029152941 0.037983626
0.04908098 0.062294964 -0.036556378 -0.044839196 0.031676717 -0.03759494 0.011840234 0.026237942
-0.026230428 -0.057175037 0.054891564 -0.02184059 0.024173174 0.007241979 0.03905952 0.016570097
-0.0591056 0.012410289 -0.0046632513 -0.054476976 0.026344093 -0.051382985 0.05982152 0.013920191
0.012249614 0.058687825 0.057387896 0.009890655 -0.016497405 0.0046584546 0.05498007 0.019386722
-0.028313603 0.033523206 -0.02570821 -0.0029955497 0.03778811 -0.061086275 0.011383987 0.022588493
0.022365289 -0.005040095 0.00701005 0.00065171125 -0.014351031 -0.0034522254 -0.0147249065 0.040558822
0.028061409 0.01972853 0.0016711948 0.015437419 -0.045136984 -0.014817621 -0.055300802 0.007949029
-0.024157766 0.015263275 -0.045055933 0.0045823627 0.04798529 -0.013174701 0.05352175 0.023831392
0.0106594125 0.004899105 -0.024731614 -0.015366043 0.051372096 -0.005773283 -0.056602154 -0.03491882
-0.061381917 0.025176909 0.021979665 -0.0007785176 0.053826828 0.05573316 -0.01538787 -0.028657883
-0.028177362 0.055922136 0.026902609 0.0017516887 0.01997311 -0.054138053 -0.051549397 0.028696897
-0.05092027 0.004717342 0.005525007 -0.012610285 -0.044099644 0.04363983 0.036391754 0.046073038
0.020400029 -0.030532613 0.015360318 -0.038055316 -0.04998904 0.018062418 -0.06053544 0.02894506
0.007730549 -0.011497543 0.04651351 0.025501452 -0.045924038 0.058755916 0.061428286 -0.030368859
-0.039952535 -0.039526522 -0.03347417 0.0005796032 -0.018205728 0.03152878 -0.027486354 -0.0005955333
0.027281016 -0.04626176 0.03849434 0.021948539 3.8566377e-05 0.059961084 -0.03242577 -0.0016861323
00000000: 0459 b0bb ace3 7f3d 95e2 5fbd 4e13 2dbd
00000010: 9139 543d 897e 2b3d e1b8 2b3d f878 bcbc
00000020: 8247 0fbd 9688 a6bc bd58 3dbd fae2 9a3c
00000030: e749 89ba 958d b93c 1944 e43b aade 88bc
00000040: ba69 083d 2812 883c 14df c83c 330d 37bc
00000050: a9f6 44bd 4fcf 58bd 054a 053d 4a44 0bbd
00000060: ce5b b9bc ae6f 4f3d 6940 3fbc 85b4 703d
00000070: 13a9 0f3d 9408 f5bc daaa 0ebd 24d3 debb
00000080: 7dcd 22bd 7f3f 353d 8925 6a3d 387d 6cbd
00000090: bcd8 f3bc c43b edbc 55d7 1abc 64cd 813c
000000a0: 43f9 5f3d 8921 8b3a a3d4 613d 653c 423c
000000b0: 4ca6 7ebc 7388 023d fbf8 f13c fd20 57bd
000000c0: 6ef2 38bc 47e5 6f3d 27f2 ed3b f480 343d
000000d0: 1c03 493d a2d9 253d 3474 273d 0f33 4f3d
000000e0: b86d 37bd eb58 6f3d 0575 693c f268 3bbd
000000f0: 8a79 4bbb baaa 3e3b e53f 2a3d 7714 b53b
00000100: 3add ea3c f368 6fbd a3c1 003c f903 40bd
00000110: 11d5 51bd 4aa4 633d b279 dbbc 8dc0 773d
00000120: 2c91 36bd d7f8 aa3c 0178 483c 8f3c 863c
00000130: d581 47bd cc6b 11bd 8506 78bd cb71 203d
00000140: b526 f53c 7a63 4f3d db3c 853d b6d4 063d
00000150: 2b1e 3f3b 0ad1 c33c 65b8 6abd 7244 48bd
00000160: f6ad 533c 22aa 573c 27cd 1b3d 2a20 5abd
00000170: 5ecb a23c e088 27bc 3c73 1fbd 4317 833a
00000180: c945 43bd 047f 733d cbe0 78bd 4291 523d
00000190: be51 4d3d 1aaf 52bd eb5e a73c 1982 30bd
000001a0: 782c 3abd 50b3 09bc 0696 5c3d c2b0 45bc
000001b0: 31e9 203d 9c1b 123c 4d0b 9fbb d5f8 b23b
000001c0: c7c5 5d3d a74b 7cbd b082 173d bf4b debb
000001d0: fda0 0f3d 9abf 1abc 14e4 403d fe6f 12bd
000001e0: d6b7 57bd ab9c e43c daf8 0ebd 8e62 233c
000001f0: c1dc 03bd a354 e3bc 26d2 eebc b894 1b3d
00000200: 2309 493d 0129 7f3d 24bc 15bd 4ea9 37bd
00000210: 72bf 013d 27fd 19bd 8afd 413c f4f0 d63c
00000220: 32e1 d6bc 5f30 6abd fad5 603d 09eb b2bc
00000230: d206 c63c 1f4e ed3b e0fc 1f3d 03be 873c
00000240: b718 72bd 8654 4b3c 30ce 98bb 4023 5fbd
00000250: 91cf d73c f776 52bd 6907 753d 8311 643c
00000260: 9bb2 483c a562 703d 920f 6b3d 6a0c 223c
00000270: 9125 87bc f3a5 983b c832 613d e7d0 9e3c
00000280: eef1 e7bc a14f 093d 069a d2bc fc50 44bb
00000290: b5c7 1a3d 9a35 7abd e783 3a3c 810b b93c
000002a0: 6937 b73c 6227 a5bb 90b4 e53b 9ad7 2a3a
000002b0: 9620 6bbc bb3e 62bb bc40 71bc 0221 263d
000002c0: 0ae1 e53c ba9d a13c fe0b db3a 3aed 7c3c
000002d0: 8fe1 38bd 9bc5 72bc 1883 62bd a53c 023c
000002e0: 82e6 c5bc d112 7a3c 928c 38bd a527 963b
000002f0: 398c 443d b3da 57bc 9f39 5b3d 0d3a c33c
00000300: d1a4 2e3c ac88 a03b f499 cabc dbc1 7bbc
00000310: 8c6b 523d cf2d bdbb a9d7 67bd 0907 0fbd
00000320: 9b6b 7bbd ce3f ce3c b30e b43c 6f15 4cba
00000330: 8579 5c3d 7448 643d 681d 7cbc f0c3 eabc
00000340: 36d4 e6bc 9c0e 653d dc62 dc3c eb98 e53a
00000350: a69e a33c ddbf 5dbd 7625 53bd c115 eb3c
00000360: c691 50bd ef93 9a3b 1e0b b53b 5e9b 4ebc
00000370: d4a1 34bd aebf 323d 850f 153d 15b7 3c3d
00000380: f61d a73c 881f fabc d8a9 7b3c e4df 1bbd
00000390: 4fc1 4cbd a3f7 933c 02f4 77bd 311e ed3c
000003a0: 8c50 fd3b 3160 3cbc f384 3e3d 6ce8 d03c
000003b0: d81a 3cbd 0baa 703d 3a9c 7b3d 1dc8 f8bc
000003c0: 45a5 23bd 90e6 21bd 361c 09bd 83f0 173a
000003d0: 2e24 95bc 5224 013d 102b e1bc 901d 1cba
000003e0: 707c df3c f97c 3dbd 3eac 1d3d 6ccd b33c
000003f0: 55c2 2138 c199 753d e2d0 04bd 3601 ddba

residual_block.1.conv_squeeze.bias f4 [16]
0.0053535295 -0.041178126 0.017220521 0.020378606 -0.033597965 0.050173335 -0.036090173 0.011684578
-0.039688647 0.05846117 0.020047879 0.03427566 -0.060521442 -0.020544862 0.02698504 0.053723365
00000000: a96c af3b 65aa 28bd 0d12 8d3c 09f1 a63c
00000010: 059e 09bd 8e82 4d3d 4ad3 13bd ac70 3f3c
00000020: 9090 22bd fb74 6f3d 733b a43c a264 0c3d
00000030: 55e5 77bd b34d a8bc bb0f dd3c 080d 5c3d

residual_block.2.conv_expand.weight f4 [256, 16, 3, 3]
0.01629393 -0.031363036 -0.05363929 -0.049567893 -0.06675903 0.028641088 0.018470159 0.048373055
-0.040536236 0.037348475 0.019470261 -0.03227133 0.017171212 -0.011894712 -0.0014631723 0.044631317
-0.058054898 0.061266303 0.024487492 -0.015119359 0.07186143 0.019277105 0.047612704 0.020611934
-0.041627355 0.056843758 -0.05409262 0.081609 -0.06246887 -0.00017369696 -0.07981214 -0.07902808
0.012640696 0.012059547 -0.024139758 0.017668521 -0.048109043 0.0069781863 -0.057328854 0.023322966
-0.018792542 -0.055371158 -0.012761591 -0.06539616 0.039714895 0.01786509 -0.0070891087 0.03913429
0.012169326 -0.03707876 0.029892804 0.04560093 -0.062848076 0.0073850243 -0.04920004 -0.08409756
0.0044119614 0.003796934 -0.014287474 0.0553337 0.06117187 -0.07692284 0.042689603 0.059043918
-0.048216693 0.026975017 -0.0074387584 -0.07295204 0.03958539 -0.021300355 0.07628292 -0.044109732
-0.060777128 -0.056489266 0.010023903 -0.057588037 0.061118722 0.0062417584 -0.058914635 -0.007413145
-0.0068059727 -0.08137752 0.074283846 -0.046894178 -0.07562282 -0.04249737 0.07690003 -0.019093765
-0.01629247 -0.04115446 0.052622873 0.0518416 -0.029126152 -0.081496045 0.002225021 -0.07604719
-0.080555536 0.034021735 -0.054208808 -0.04924933 -0.012481956 0.026081419 -0.07487736 -0.018942447
0.024611069 0.043681435 0.055017285 -0.054150548 -0.056629784 -0.07724938 0.059953418 0.04784347
-0.03207167 -0.0749979 0.07295613 0.015198846 0.0051965993 0.005830008 -0.00052340986 -0.066127405
0.018586056 0.0053201606 -0.005705798 0.066178866 -0.08235674 -0.052263226 0.0104286615 0.047436662
0.025120683 -0.042603306 0.06331562 0.024000768 0.043169428 -0.0153561495 0.04916859 -0.02922717
-0.0011273916 0.067427196 -0.07371339 0.045619763 0.060123667 -0.02240294 0.0366393 0.024044482
-0.07660829 0.007850704 -0.031789914 -0.02763146 0.050405193 0.030493915 -0.07358733 -0.05044355
0.00477062 -0.0026469303 -0.05682577 -0.07861503 0.054199032 -0.019694109 -0.07342569 -0.056838505
0.07768589 -0.063994035 0.0118287485 -0.01424057 -0.065610416 0.029488416 0.0012063917 0.04533228
-0.043708436 0.014952984 0.0785842 0.061366428 -0.084448345 0.018985096 0.06920211 -0.059476856
-0.04544856 0.078693524 -0.07881627 0.073208496 -0.011787973 0.0015123888 -0.07668461 0.049599092
-0.009468331 -0.043467812 0.013950623 0.00024084128 -0.057147007 0.07522305 -0.010833011 0.02779621
0.07422304 0.040198453 0.0053898464 0.019491233 -0.012223533 -0.03750957 0.024158107 0.06397352
0.03915263 0.07973445 0.04525152 0.00034771333 0.027186727 0.007456567 0.067311555 0.022583054
-0.06798419 -0.049097363 -0.043759517 -0.0504438 -0.048196673 0.043915737 0.0059524276 -0.05013013
-0.04201926 -0.009249688 -0.04159593 -0.008815272 -0.03659417 -0.031133562 0.060379233 0.012325344
0.027613802 -0.04047285 -0.06709281 -0.0716237 -0.073695146 -0.07343579 -0.065065876 -0.06809545
-0.028330753 -0.041769132 -0.00691539 0.006927215 -0.06295809 0.015687512 -0.021439085 0.050986677
0.08317262 -0.08264548 -0.03416242 -0.071695834 0.041543674 -0.078424774 0.07517048 -0.025217917
0.025583029 0.052102245 -0.06029116 0.024695804 -0.08034992 -0.07232803 0.07204935 -0.038942926
00000000: d97a 853c 8776 00bd dfb4 5bbd b407 4bbd
00000010: f5b8 88bd b7a0 ea3c bb4e 973c d322 463d
00000020: 5309 26bd b7fa 183d 1980 9f3c f12e 04bd
00000030: a4aa 8c3c 0ae2 42bc eac7 bfba 54cf 363d
00000040: f9ca 6dbd 60f2 7a3d fe99 c83c 30b7 77bc
00000050: 162c 933d 05eb 9d3c 8a05 433d 5cda a83c
00000060: 7281 2abd 00d5 683d 3990 5dbd 9f22 a73d
00000070: 5cdf 7fbd 6c22 36b9 8c74 a3bd 79d9 a1bd
00000080: ec1a 4f3c 6895 453c bec0 c5bc 93bd 903c
00000090: fd0d 45bd 45a9 e43b a9d1 6abd ce0f bf3c
000000a0: d1f2 99bc decc 62bd fe15 51bc 6cee 85bd
000000b0: 16ac 223d cf59 923c c14b e8bb 474b 203d
000000c0: da61 473c e6df 17bd c1e1 f43c 0ac8 3a3d
000000d0: 7eb6 80bd 13fe f13b fb85 49bd 573b acbd
000000e0: 3792 903b fbd5 783b 0216 6abc 97a5 623d
000000f0: 5b8f 7a3d b989 9dbd 4bdb 2e3d 09d8 713d
00000100: de7e 45bd b6fa dc3c d4c0 f3bb e167 95bd
00000110: 4a24 223d 157e aebc 383a 9c3d 68ac 34bd
00000120: 70f1 78bd 4a61 67bd 4c3b 243c 6fe1 6bbd
00000130: a057 7a3d aa87 cc3b 7950 71bd f8e9 f2bb
00000140: a304 dfbb 42a9 a6bd 2122 983d 1c14 40bd
00000150: 23e0 9abd b911 2ebd c37d 9d3d 876a 9cbc
00000160: c977 85bc 9491 28bd 158b 573d dc57 543d
00000170: f899 eebc 66e7 a6bd a8d1 113b a1be 9bbd
00000180: 4dfa a4bd 605a 0b3d 0e0a 5ebd aab9 49bd
00000190: 1e81 4cbc b3a8 d53c 4d59 99bd 312d 9bbc
000001a0: 279d c93c 4eeb 323d ce59 613d f7cc 5dbd
000001b0: a2f4 67bd ec34 9ebd b791 753d 84f7 433d
000001c0: 955d 03bd 8098 99bd 066a 953d 9504 793c
000001d0: 3c48 aa3b a709 bf3b 7135 09ba ce6d 87bd
000001e0: c941 983c be54 ae3b b4f7 babb c988 873d
000001f0: a7aa a8bd f711 56bd fadc 2a3c f24c 423d
00000200: e4c9 cd3c ce80 2ebd 9fab 813d 429d c43c
00000210: 6dd2 303d 5c98 7bbc 0165 493d d16d efbc
00000220: fcc4 93ba 4517 8a3d 0cf7 96bd cadb 3a3d
00000230: 3c44 763d 5f86 b7bc 1713 163d eff8 c43c
00000240: cfe4 9cbd 3da0 003c 2436 02bd 5f5b e2bc
00000250: ad75 4e3d 60ce f93c f4b4 96bd e59d 4ebd
00000260: dc52 9c3b 1f78 2dbb 23c2 68bd eb00 a1bd
00000270: ceff 5d3d 8a55 a1bc 3560 96bd 7ecf 68bd
00000280: c819 9f3d 4e0f 83bd 5ecd 413c 4851 69bc
00000290: c15e 86bd b191 f13c ca1f 9e3a 57ae 393d
000002a0: 9e07 33bd 5cfd 743c c1f0 a03d 5d5b 7b3d
000002b0: 41f3 acbd a286 9b3c d6b9 8d3d 019e 73bd
000002c0: 4528 3abd 122a a13d 6d6a a1bd 56ee 953d
000002d0: 5822 41bc 593b c63a d20c 9dbd 6b28 4b3d
000002e0: 0f21 1bbc 4e0b 32bd 2791 643c 578a 7c39
000002f0: fb12 6abd 8b0e 9a3d f17c 31bc e1b4 e33c
00000300: 4002 983d 22a7 243d 4f9d b03b 14ac 9f3c
00000310: 3745 48bc a3a3 19bd 39e7 c53c 8d04 833d
00000320: 825e 203d d14b a33d a859 393d 4b4d b639
00000330: b3b6 de3c 3856 f43b a4da 893d 1900 b93c
00000340: 4c3b 8bbd 511a 49bd 2e3d 33bd 289e 4ebd
00000350: e069 45bd fde0 333d 950c c33b 4055 4dbd
00000360: 631c 2cbd 018c 17bc 7e60 2abd ee6d 10bc
00000370: c5e3 15bd d00b ffbc 3750 773d 3df0 493c
00000380: 5736 e23c dcc6 25bd f567 89bd 72af 92bd
00000390: 7bed 96bd 8165 96bd 4241 85bd a175 8bbd
000003a0: e515 e8bc 1c16 2bbd 7f9a e2bb b1fd e23b
000003b0: 2cf0 80bd 1983 803c 05a1 afbc 68d7 503d
000003c0: 6856 aa3d 0942 a9bd e5ed 0bbd 44d5 92bd
000003d0: b329 2a3d 2b9d a0bd fbf2 993d ce95 cebc
000003e0: 8093 d13c 2a69 553d ddf3 76bd db4e ca3c
000003f0: 808e a4bd b820 94bd 9c8e 933d 9e82 1fbd
