model_params/sr_G.pth (torch, 964677 bytes, 15 tensors)

conv_first.conv_expand.weight f4 [256, 1, 5, 5]
-0.012094221 0.04912533 -0.124262124 0.04225291 0.010750018 -0.18564144 -0.08764202 0.19629037
-0.1640473 0.053833473 0.046215873 -0.17366716 -0.17737578 -0.16590467 -0.16190769 -0.15672094
-0.013006096 0.091921784 -0.15709586 0.055554483 -0.14337428 -0.11825011 -0.19942814 -0.045518164
0.02256432 -0.1302206 -0.15009066 0.01149249 0.06821807 0.14616396 0.1077424 0.061845776
0.17868981 -0.13288376 0.05757613 0.10551812 0.012809067 -0.10201938 -0.011178529 0.18767002
0.11881314 -0.14559712 -0.0051913066 -0.16120076 -0.011222041 -0.091916144 -0.17046379 -0.13862592
0.08183121 0.11341656 -0.18462817 -0.042675547 0.12954012 0.04402449 -0.0074885334 -0.17486796
0.17843714 0.094765484 0.14088526 0.15380909 -0.13362354 -0.15804052 -0.16587049 0.07444124
-0.039443225 0.06248211 0.07625433 -0.004891561 -0.116011925 0.09445567 0.1463964 0.17831631
-0.11641028 -0.015661176 -0.16989692 -0.058400474 -0.13380496 0.10121424 -0.087340645 -0.0043882513
0.024382388 0.1699542 4.123314e-05 -0.07662736 0.050610404 0.07458394 -0.16496395 -0.18922189
0.061864827 -0.12421233 0.13721792 0.1676761 -0.14392509 0.040930267 0.19306722 -0.13631326
0.052177444 -0.003493437 -0.08273942 -0.061406538 0.10502776 -0.053422365 -0.08951773 -0.12627539
0.12359626 0.09915051 -0.1418253 -0.13094802 -0.17229745 -0.1673363 -0.013446534 -0.19100429
0.1443494 -0.19756879 0.15917988 0.005950748 -0.167153 -0.18877801 -0.06931173 0.047163315
-0.0011800857 0.11599359 0.17664793 0.19364853 -0.12684345 0.055894535 0.00496383 0.12633151
-0.014283991 0.07475843 0.12693459 0.16314778 0.11340168 0.0123782065 -0.10749163 0.11408537
-0.16660191 0.0028041783 0.1983283 -0.05633657 -0.013033035 -0.06344791 0.011721871 -0.06481439
0.13637061 0.100767575 -0.02807741 -0.17263046 -0.17114055 -0.13041304 -0.025005154 0.095415875
-0.12261457 0.15518034 0.16580474 -0.078637384 0.12380036 0.11649779 0.0901679 0.13626711
-0.03300666 -0.15670177 0.12838379 -0.009914387 -0.17015287 0.032724395 0.10251706 -0.1634901
0.14124516 0.18550053 0.17070629 0.1756591 0.13553436 -0.18161054 0.17863192 0.071385294
-0.06016608 -0.08103905 -0.1268202 0.18465647 0.023731213 0.03227096 -0.0822506 -0.008257297
-0.06987714 -0.08998347 -0.030329397 -0.02292881 0.09491241 0.15196072 -0.13074134 -0.041498557
0.004822967 -0.119653635 -0.20011595 0.15943341 -0.07377644 0.16070369 -0.20050184 0.18926081
-0.12864295 0.00269804 -0.19647653 0.008256376 0.098171994 -0.10612575 -0.072126925 0.16442578
-0.041658986 -0.022083255 -0.13950387 0.16772148 -0.06039498 0.15383568 -0.18649848 0.15895593
-0.12251699 -0.025759147 -0.05100426 0.025184067 -0.14230816 -0.08910302 -0.12429964 -0.0944354
-0.05647382 -0.03710284 0.13079958 0.123485856 0.16146028 0.17885488 0.058751006 0.097298905
0.18692791 0.14427741 0.053740826 0.07966362 -0.09490973 0.07739977 -0.19898418 0.13229056
-0.0346923 0.006697453 -0.04317083 -0.0527085 -0.07063671 0.031663645 0.13936456 -0.060059916
-0.119963914 -0.12289965 0.12305239 -0.01283311 0.14175192 -0.17196572 -0.039766356 0.060104016
00000000: d726 46bc a437 493d 247d febd 6311 2d3d
00000010: d820 303c ca18 3ebe a97d b3bd 5800 493e
00000020: 04fc 27be 7d80 5c3d db4c 3d3d ced5 31be
00000030: ffa1 35be eae2 29be 21cb 25be 747b 20be
00000040: 8517 55bc 7d41 bc3d bddd 20be 198d 633d
00000050: b5d0 12be 1d2d f2bd e436 4cbe 4171 3abd
00000060: cfd8 b83c 8d58 05be 5eb1 19be ff4a 3c3c
00000070: eab5 8b3d 01ac 153e 0ca8 dc3d ff51 7d3d
00000080: 76fa 363e ae12 08be f3d4 6b3d e219 d83d
00000090: 1fdd 513c 89ef d0bd 2626 37bc 922c 403e
000000a0: 4e54 f33d 6917 15be d61b aabb d011 25be
000000b0: a7dc 37bc 883e bcbd 0f8e 2ebe f4f3 0dbe
000000c0: 1f97 a73d f146 e83d 2b0f 3dbe 8ecc 2ebd
000000d0: 2aa6 043e 0653 343d 5f62 f5bb 9610 33be
000000e0: 3ab8 363e 6814 c23d 3a44 103e 2180 1d3e
000000f0: 9cd4 08be 60d5 21be f4d9 29be a674 983d
00000100: 388f 21bd 3eed 7f3d 3b2b 9c3d 6349 a0bb
00000110: a997 edbd f971 c13d f0e8 153e 8d98 363e
00000120: 8368 eebd de4b 80bc 75f9 2dbe 5635 6fbd
00000130: 2b04 09be 6949 cf3d a7df b2bd 52cb 8fbb
00000140: 93bd c73c 7908 2e3e bff1 2c38 ceee 9cbd
00000150: db4c 4f3d 77bf 983d 4fec 28be 62c3 41be
00000160: f965 7d3d 0963 febd db82 0c3e 49b3 2b3e
00000170: 1961 13be 7fa6 273d 6ab3 453e b495 0bbe
00000180: 04b8 553d 26f2 64bb 4973 a9bd 6c85 7bbd
00000190: cb18 d73d 69d1 5abd 1255 b7bd 564e 01be
000001a0: 0920 fd3d 6c0f cb3d a73a 11be 3d17 06be
000001b0: be6e 30be 355a 2bbe da4e 5cbc a196 43be
000001c0: 54d0 133e 794f 4abe 0d00 233e 7efe c23b
000001d0: 282a 2bbe 064f 41be 4ff3 8dbd 522e 413d
000001e0: 1bad 9aba 0c8e ed3d 32e3 343e cd4b 463e
000001f0: 40e3 01be abf1 643d a0a7 a23b 0c5d 013e
00000200: 6707 6abc f31a 993d 24fb 013e 3610 273e
00000210: 243f e83d f6cd 4a3c 9224 dcbd 97a5 e93d
00000220: b199 2abe 4ec6 373b 9316 4b3e 2dc1 66bd
00000230: 8388 55bc faf0 81bd 170d 403c 68bd 84bd
00000240: bda4 0b3e 3b5f ce3d 9902 e6bc 0ac6 30be
00000250: 783f 2fbe ff8a 05be 9cd7 ccbc 6669 c33d
00000260: 591d fbbd 98e7 1e3e b8c8 293e a30c a1bd
00000270: 0b8b fd3d 6596 ee3d f3a9 b83d 9b89 0b3e
00000280: fe31 07bd 6e76 20be 0a77 033e f46f 22bc
00000290: 8e3c 2ebe 040a 063d 77f4 d13d f369 27be
000002a0: 92a2 103e daf3 3d3e a1cd 2e3e fbdf 333e
000002b0: 85c9 0a3e 1df8 39be 49eb 363e 7432 923d
000002c0: b570 76bd cdf7 a5bd 28dd 01be 9616 3d3e
000002d0: f667 c23c 8e2e 043d 0173 a8bd 9d49 07bc
000002e0: bf1b 8fbd 4149 b8bd 5b75 f8bc 33d5 bbbc
000002f0: 7061 c23d 979b 1b3e 0fe1 05be 64fa 29bd
00000300: fb09 9e3b f70c f5bd 32eb 4cbe 8342 233e
00000310: 1a18 97bd 828f 243e 5b50 4dbe 96cd 413e
00000320: faba 03be 9ad1 303b 2531 49be c045 073c
00000330: 660e c93d 7558 d9bd 48b7 93bd 3b5f 283e
00000340: 9da2 2abd f1e7 b4bc 1ada 0ebe 2ebf 2b3e
00000350: ba60 77bd 1a87 1d3e 75f9 3ebe 58c5 223e
00000360: 30ea fabd d904 d3bc d8e9 50bd d14e ce3c
00000370: 3bb9 11be a57b b6bd cf90 febd 5967 c1bd
00000380: 1851 67bd 26f9 17bd 53f0 053e 27e6 fc3d
00000390: d855 253e bc25 373e e5a4 703d a644 c73d
000003a0: 086a 3f3e 75bd 133e 571f 5c3d ae26 a33d
000003b0: 0860 c2bd c583 9e3d 82c2 4bbe 2d77 073e
000003c0: 8319 0ebd 4f76 db3b e5d3 30bd dee4 57bd
000003d0: fba9 90bd bdb1 013d 95b5 0e3e 6301 76bd
000003e0: a4af f5bd d0b2 fbbd e402 fc3d f741 52bc
000003f0: 6a27 113e c817 30be 0ce2 22bd a12f 763d

conv_first.conv_squeeze.weight f4 [16, 256, 1, 1]
-0.028210994 0.0014382276 0.0396827 -0.053665344 -0.03336252 0.05176966 0.05207903 0.017102934
-0.040526807 -0.059186548 0.04066662 -0.006624631 0.013131595 0.03523003 -0.062572874 0.0053004352
0.06592229 -0.06207125 0.03024144 0.03387697 0.015818406 0.059554417 0.020431975 -0.006275016
0.027562926 0.012406274 -0.0005802839 0.031186372 -0.016562419 0.001968306 -0.0073262146 -0.009883105
-0.058779143 -0.04285426 0.035607178 -0.015830114 -0.038359616 0.0029182392 0.0038494263 -0.03523632
0.012065822 0.050587337 0.0189142 0.0092000095 -0.052745555 0.044870574 0.0066025476 0.03158897
-0.02973786 0.022759173 0.02983474 -0.0016707168 -0.0185136 0.013781179 0.035466474 -0.0442982
-0.040453594 -0.053143375 -0.0044296393 0.04485979 0.0462066 0.026233139 -0.004748871 -0.025975665
0.042585358 0.00527649 -0.014931281 -0.02025257 0.047555264 0.047079355 -0.048889473 0.02746239
-0.032069888 -0.050798792 -0.050859913 -0.041804764 0.0048371158 -0.066644214 -0.027960652 -0.026576955
-0.033247754 0.00041897004 -0.007623477 -0.032957 -0.04973214 -0.014623015 0.019035883 0.06267723
0.009610745 0.021335725 0.0012670322 0.017231109 0.024061054 0.030831646 -0.049579196 0.02687881
-0.0070327977 0.045037046 -0.059509363 -0.04655937 -0.007836922 -0.04376062 -0.037149727 0.026039721
0.0037316952 -0.006351454 0.008284694 -0.013261505 0.024387496 -0.00368428 0.029268686 -0.016110279
0.039885223 -0.0033024966 0.017512163 0.02010863 0.00220877 0.008023704 0.009681339 0.033894647
-0.042723097 0.0040085632 0.03554944 0.017900443 0.0021496762 -0.031341568 -0.041046232 -0.0379858
0.004005503 0.055776414 0.010154412 0.035717357 0.012272655 0.042056944 0.04563701 -0.032628536
0.048659492 -0.010280573 0.056794588 0.060367465 0.06000547 -0.06209574 -0.010666224 0.044669006
-0.0676164 0.04240183 -0.0022228896 -0.048871957 0.05589824 -0.04551892 0.05308458 0.0027870706
-0.05829737 -0.007820701 0.04482257 0.013620969 0.056284353 0.054148942 -0.04727867 0.027811646
-0.05830686 -0.024326716 -0.053050496 -0.006175379 0.026594285 -0.018319992 0.0200374 0.027798263
-0.05044384 -0.053004295 0.00392211 0.038632236 -0.05786272 -0.0059977793 0.0011109482 -0.008909959
-0.060467 0.057876088 -0.030304497 -0.005872904 -0.04794183 -0.01828059 -0.058719374 -0.017162405
0.0503854 0.0063690743 0.049492516 -0.016586913 0.039012704 0.043303613 -0.052025657 0.028391637
-0.014780346 -0.028101003 -0.02365272 0.05287034 0.031339884 0.028675115 -0.038724832 0.055778407
-0.03192972 0.059290387 -0.039087575 -0.013700821 0.059522357 0.027376005 0.020196365 -0.020070324
-0.050188106 -0.045310933 -0.010095847 0.017719291 0.015257293 0.0097622415 0.007874153 0.041141946
0.045778487 -0.008612151 0.058047943 0.04513024 0.028829372 -0.0024216291 -0.0038226407 0.02153458
0.053932346 0.03236679 0.030194292 0.002289458 0.058068547 -0.060297858 0.014335318 -0.042286877
0.018780425 0.0058039348 0.010962837 -0.0561337 0.056269974 -0.022839267 0.056696955 -0.0036254467
0.00018618966 -0.018165935 0.0030636056 0.009356383 -0.059676126 0.03274421 -0.017913576 -0.015576281
0.049915813 -0.010702258 -0.035256222 -0.033917237 -0.054765876 -0.012306795 -0.060269617 0.038384
00000000: be1a e7bc e982 bc3a 548a 223d 31d0 5bbd
00000010: 23a7 08bd 6c0c 543d d250 553d 741b 8c3c
00000020: 70ff 25bd 986d 72bd 0b92 263d 6f13 d9bb
00000030: e725 573c 5d4d 103d 3526 80bd 46af ad3b
00000040: 4402 873d 6c3e 7ebd e5bc f73c 94c2 0a3d
00000050: 9a95 813c 55ef 733d f560 a73c a69e cdbb
00000060: a5cb e13c af43 4b3c 311e 18ba 907a ff3c
00000070: e9ad 87bc b2fe 003b be10 f0bb bfec 21bc
00000080: 66c2 70bd f387 2fbd d5d8 113d 28ae 81bc
00000090: f91e 1dbd ee3f 3f3b a846 7c3b f653 10bd
000000a0: baaf 453c ab34 4f3d f4f1 9a3c a3bb 163c
000000b0: b90b 58bd 35ca 373d 2f5a d83b 7063 013d
000000c0: d09c f3bc 7271 ba3c fc67 f43c f4fb daba
000000d0: d5a9 97bc 74ca 613c 4b45 113d 0872 35bd
000000e0: abb2 25bd deac 59bd 8226 91bb e6be 373d
000000f0: 2243 3d3d e1e6 d63c 6b9c 9bbb ebca d4bc
00000100: fc6d 2e3d 68e6 ac3b 55a2 74bc b8e8 a5bc
00000110: 4fc9 423d 48d6 403d 5440 48bd cef8 e03c
00000120: b75b 03bd 6512 50bd 7c52 50bd 793b 2bbd
00000130: ab80 9e3b c37c 88bd bd0d e5bc eab7 d9bc
00000140: cc2e 08bd 35a9 db39 5cce f9bb ebfd 06bd
00000150: eeb3 4bbd 5f95 6fbc 24f1 9b3c eb5c 803d
00000160: 6376 1d3c 42c8 ae3c 8c12 a63a 4128 8d3c
00000170: b01b c53c a692 fc3c 8e13 4bbd f330 dc3c
00000180: 6273 e6bb c478 383d 17c0 73bd 0ab5 3ebd
00000190: 6f66 00bc 563e 33bd 502a 18bd 4151 d53c
000001a0: 758f 743b dc1f d0bb 86bc 073c c946 59bc
000001b0: 49c8 c73c f673 71bb e2c4 ef3c b4f9 83bc
000001c0: b05e 233d b36e 58bb ab75 8f3c dbba a43c
000001d0: 03c1 103b db75 033c 7b9e 1e3c 1dd5 0a3d
000001e0: 6afe 2ebd 445a 833b 4a9c 113d f3a3 923c
000001f0: 95e1 0c3b 0460 00bd 1820 28bd 0097 1bbd
00000200: 9840 833b cf75 643d b15e 263c 5d4c 123d
00000210: 3f13 493c e743 2c3d e0ed 3a3d 80a5 05bd
00000220: 2d4f 473d d96f 28bc 71a1 683d e043 773d
00000230: 4cc8 753d 1a58 7ebd 63c1 2ebc d9f6 363d
00000240: 787a 8abd 8bad 2d3d e6ad 11bb f62d 48bd
00000250: 8ef5 643d 0c72 3abd 376f 593d 49a7 363b
00000260: 39c9 6ebd 6622 00bc df97 373d 7c2a 5f3c
00000270: 6c8a 663d 48cb 5d3d 47a7 41bd 40d5 e33c
00000280: 2dd3 6ebd d248 c7bc 7a4b 59bd d55a cabb
00000290: 42dc d93c cf13 96bc 7925 a43c 2fb9 e33c
000002a0: 339e 4ebd 081b 59bd 0b85 803b d63c 1e3d
000002b0: 7601 6dbd 0589 c4bb 3c9d 913a 14fb 11bc
000002c0: 3fac 77bd 7a0f 6d3d 2341 f8bc 7d71 c0bb
000002d0: a75e 44bd 2dc1 95bc ba83 70bd 2c98 8cbc
000002e0: ec60 4e3d abb3 d03b aab8 4a3d 47e1 87bc
000002f0: c9cb 1f3d 215f 313d db18 55bd 9495 e83c
00000300: 4429 72bc 1334 e6bc 59c3 c1bc 928e 583d
00000310: 405e 003d 13e8 ea3c ee9d 1ebd e677 643d
00000320: bdc8 02bd 7ada 723d 4b1a 20bd 6979 60bc
00000330: b7cd 733d a543 e03c d972 a53c 856a a4bc
00000340: 0b92 4dbd f597 39bd 0d69 25bc 0c28 913c
00000350: baf9 793c cff1 1f3c 9702 013c 7584 283d
00000360: 3982 3b3d fb19 0dbc aec3 6d3d 7dda 383d
00000370: 932b ec3c 32b4 1ebb 4585 7abb 4a69 b03c
00000380: 2ae8 5c3d 0a93 043d 055a f73c bb0a 163b
00000390: 49d9 6d3d e3fa 76bd aede 6a3c 0135 2dbd
000003a0: 68d9 993c ef2e be3b 799d 333c 73ec 65bd
000003b0: 587b 663d 6a19 bbbc 113b 683d e798 6dbb
000003c0: e83b 4339 bad0 94bc c6c6 483b 844b 193c
000003d0: f46e 74bd cb1e 063d 7ebf 92bc a833 7fbc
000003e0: 8674 4c3d 8658 2fbc d468 10bd cdec 0abd
000003f0: 2f52 60bd 71a2 49bc 46dd 76bd 8b38 1d3d

conv_first.conv_squeeze.bias f4 [16]
-0.05475365 -0.0020709948 0.0033295392 0.023450624 0.03402617 0.048453894 0.021161823 -0.017635511
-0.018311689 0.026311781 0.028420975 0.015819142 0.0015475539 0.021494286 -0.04409884 0.056600157
00000000: 5d45 60bd 87b9 07bb 6634 5a3b 861b c03c
00000010: 065f 0b3d 9777 463d 8f5b ad3c 5978 90bc
00000020: 6502 96bc ce8b d73c 1bd3 e83c 2597 813c
00000030: 4bd7 ca3a c914 b03c fca0 34bd 91d5 673d

residual_block.0.conv_expand.weight f4 [256, 16, 3, 3]
0.043021817 -0.040014748 0.029985214 0.04595722 -0.007992126 0.06648282 -0.023109643 0.03289268
-0.055629242 0.07122958 0.063603416 -0.024809761 0.056247737 -0.04271188 -0.012379952 -0.055420447
0.06845238 0.03386822 -0.049786102 -0.012078061 0.08868967 0.069356695 -0.036450103 -0.0016515623
0.018598594 -0.07569996 0.03673523 -0.076250836 -0.014254029 0.034001447 -0.06723453 0.029369095
0.071426585 0.04836013 -0.010177588 0.033366535 -0.03849999 -0.013545935 0.020147637 -0.018489571
-0.024301235 -0.039992023 -0.026853116 -0.06870133 -0.009393244 0.02463466 -0.028022282 0.033386208
0.044683117 -0.045578595 -0.07664286 -0.019755654 -0.004182705 -0.06479463 0.045402374 0.021338914
-0.054583352 -0.00033250827 -0.08916818 0.015620373 -0.08601763 -0.005853946 0.06864817 0.058593977
-0.04992197 -0.04727163 -0.037768394 -0.0029660915 -0.06905933 -0.027075347 0.041534107 0.008452463
-0.00872357 -0.15771724 -0.048517354 -0.05738262 -0.060419384 -0.13262348 -0.14660458 0.029866049
0.0051716226 -0.07929631 0.05950442 -0.03046967 0.029664988 -0.035571974 0.07188299 0.002581974
0.08390032 -0.040238075 0.038462553 -0.08034313 0.03289571 -0.0143800145 -0.06965867 -0.056069884
0.055130772 0.015402205 -0.031172847 -0.070378095 0.0717665 -0.059696935 -0.032995798 0.06853592
-0.06777678 -0.032252446 -0.025864938 0.068153985 0.061888304 0.027916843 -0.033560917 0.04928078
0.066636056 -0.07029975 -0.013772754 -0.0046192496 0.01577593 -0.051025428 0.0021121034 -0.011782047
3.2384127e-05 0.055302203 -0.035541456 0.03967549 -0.046459712 -0.037748642 -0.028669467 -0.07636294
0.00711514 -0.076240405 -0.07013718 0.0005304463 -0.022747705 -0.061909854 0.06370631 -0.020272762
-0.023283366 -0.005790157 0.059320264 0.039105617 0.039911762 -0.030729158 -0.004303868 -0.08498314
-0.021416506 -0.016794134 0.040231448 0.064450264 0.062819876 -0.02602168 -0.041898254 -0.013128194
0.005315502 -0.044877578 0.01872166 0.031893633 -0.0033322966 0.0030892435 -0.03788771 -0.08412493
-0.07348925 -0.07273511 0.0009822279 0.08136354 -0.0990736 0.06541046 0.047129795 0.022524213
0.014638248 -0.03871148 -0.07089284 -0.06727486 -0.047639877 -0.07694348 0.03529763 -0.06973786
0.029776914 -0.07074292 -0.05369874 0.029213587 -0.05000345 -0.012557178 0.06407142 -0.075984925
-0.08805537 -0.028594695 0.008513618 -0.07986168 -0.020256385 -0.03824029 -0.04273251 -0.06779455
-0.027086986 0.025110606 -0.0527424 -0.06354587 -0.07289726 -0.05817259 -0.1027907 -0.03533773
-0.013429469 0.02365506 0.021161428 0.04279477 0.04914821 -0.052462205 -0.07111304 0.060198903
0.019722844 -0.022536488 -0.0576391 -0.073819205 0.020770257 0.06425812 0.07731501 0.04998234
-0.0012032448 -0.02193138 0.010368029 0.13293278 0.091254435 0.083311565 -0.0032556998 0.010296987
0.071675315 0.034012895 0.07770291 -0.053528354 0.00041084198 -0.07164489 -0.060511567 0.04674746
-0.08402991 -0.010181372 0.0384629 0.08045595 0.04432038 0.04610737 -0.080170766 0.025750438
0.05791011 -0.04545994 0.07022793 -0.023008695 -0.060985684 0.015718628 -0.021300213 -0.04753161
0.021963673 0.016414508 0.002500114 0.073067196 0.047880843 0.0071742195 -0.023077803 0.07376172
00000000: a537 303d 81e6 23bd 8da3 f53c a33d 3c3d
00000010: 68f1 02bc 2528 883d 6f50 bdbc 7aba 063d
00000020: 7ddb 63bd d0e0 913d 8242 823d d73d cbbc
00000030: 0764 663d a7f2 2ebd 48d5 4abc 8d00 63bd
00000040: c330 8c3d 67b9 0a3d 83ec 4bbd 0fe3 45bc
00000050: eea2 b53d e20a 8e3d b44c 15bd 3c79 d8ba
00000060: 145c 983c 9508 9bbd ae77 163d 6629 9cbd
00000070: bb89 69bc 1a45 0b3d 42b2 89bd 7597 f03c
00000080: 1a48 923d 4615 463d e6bf 26bc 59ab 083d
00000090: 2ab2 1dbd c5ef 5dbc a80c a53c 7177 97bc
000000a0: 6213 c7bc adce 23bd 11fb dbbc 48b3 8cbd
000000b0: 1fe6 19bc a0ce c93c fc8e e5bc fabf 083d
000000c0: a505 373d 9fb0 3abd eff6 9cbd 9cd6 a1bc
000000d0: 130f 89bb 0cb3 84bd d7f7 393d f2ce ae3c
000000e0: cb92 5fbd 8154 aeb9 cf9d b6bd 98ec 7f3c
000000f0: 032a b0bd 75d2 bfbb 6997 8c3d 3d00 703d
00000100: fb7a 4cbd e69f 41bd 08b3 1abd c262 42bb
00000110: fa6e 8dbd 1ecd ddbc ab1f 2a3d 337c 0a3c
00000120: 4eed 0ebc a180 21be 22ba 46bd 0a0a 6bbd
00000130: 517a 77bd 73ce 07be 831f 16be a5a9 f43c
00000140: b776 a93b 1b66 a2bd e8ba 733d 889b f9bc
00000150: fd03 f33c ebb3 11bd 6437 933d 5636 293b
00000160: eed3 ab3d aed0 24bd e98a 1d3d f08a a4bd
00000170: a7bd 063d 279a 6bbc 34a9 8ebd 89a9 65bd
00000180: ced0 613d 8859 7c3c 335e ffbc 6422 90bd
00000190: 51fa 923d c684 74bd 9a26 07bd 8f5c 8c3d
000001a0: 8dce 8abd 241b 04bd b5e2 d3bc 5194 8b3d
000001b0: 977e 7d3d ddb1 e43c 2c77 09bd a5da 493d
000001c0: 7c78 883d 51f9 8fbd 1ea7 61bc 135d 97bb
000001d0: 863c 813c 0a00 51bd 376b 0a3b 7d09 41bc
000001e0: 31d4 0738 9084 623d eb93 11bd c482 223d
000001f0: 8a4c 3ebd 529e 1abd 3bdc eabc 2c64 9cbd
00000200: 1f26 e93b ee23 9cbd 15a4 8fbd a60d 0b3a
00000210: 6559 babc 3095 7dbd 7478 823d 1013 a6bc
00000220: c2bc bebc 5bbb bdbb cef9 723d 362d 203d
00000230: 847a 233d b7bb fbbc 7607 8dbb a40b aebd
00000240: ab71 afbc da93 89bc bbc9 243d 80fe 833d
00000250: b5a7 803d 6b2b d5bc 819d 2bbd a317 57bc
00000260: aa2d ae3b 8dd1 37bd 2b5e 993c e6a2 023d
00000270: a962 5abb e874 4a3b 2530 1bbd b149 acbd
00000280: 8881 96bd 25f6 94bd 19be 803a eda1 a63d
00000290: 19e7 cabd ebf5 853d 2c0b 413d b384 b83c
000002a0: 43d5 6f3c ee8f 1ebd 4430 91bd 67c7 89bd
000002b0: 0822 43bd 8b94 9dbd 3f94 103d b9d2 8ebd
000002c0: b7ee f33c aae1 90bd 36f3 5bbd 5551 ef3c
000002d0: 6bd0 4cbd 9fbc 4dbc e037 833d fc9d 9bbd
000002e0: 6056 b4bd 6c3f eabc b47c 0b3c 858e a3bd
000002f0: b8f0 a5bc daa1 1cbd 4908 2fbd ded7 8abd
00000300: 87e5 ddbc c2b4 cd3c 6a08 58bd 5624 82bd
00000310: 294b 95bd 6246 6ebd ee83 d2bd 4cbe 10bd
00000320: 4707 5cbc 42c8 c13c bb5a ad3c 9249 2f3d
00000330: a24f 493d 9ce2 56bd b7a3 91bd 2093 763d
00000340: cd91 a13c 719e b8bc fa16 6cbd 862e 97bd
00000350: 6326 aa3c c399 833d 5557 9e3d 48ba 4c3d
00000360: 32b6 9dba 70a9 b3bc aade 293c 881f 083e
00000370: 9be3 ba3d 419f aa3d 945d 55bb b2b4 283c
00000380: 82ca 923d 1b51 0b3d b422 9f3d 8c40 5bbd
00000390: 4766 d739 8eba 92bd fada 77bd 447a 3f3d
000003a0: e017 acbd c5cf 26bc 468b 1d3d 17c6 a43d
000003b0: 4989 353d 15db 3c3d 9230 a4bd 95f2 d23c
000003c0: 2733 6d3d 3434 3abd a9d3 8f3d bb7c bcbc
000003d0: 20cc 79bd 5ac4 803c c97d aebc 81b0 42bd
000003e0: 29ed b33c b877 863c f4d8 233b 41a4 953d
000003f0: b41e 443d b715 eb3b a90d bdbc 6210 973d

residual_block.0.conv_squeeze.weight f4 [16, 256, 1, 1]
-0.03150817 0.024658268 0.044052463 0.03921975 0.010042169 0.046033617 -0.02048456 0.016681906
0.015798533 0.03292935 0.03420653 -0.0044683237 0.03954922 -0.04185873 0.021498619 -0.00839083
-0.014675194 0.045191072 0.0077457344 0.021925306 0.0005241611 -0.014471889 0.00034147402 -0.022990804
0.060468327 0.026457962 -0.03737353 -0.014359463 -0.030666789 -0.019307138 -0.058050092 0.019279009
0.008058407 0.045938 -0.057366107 0.05123203 -0.040113598 0.027006159 -0.024665903 -0.021168483
-0.04754999 -0.004293776 -0.009192829 -0.026929844 -0.014587782 -0.026222402 -0.039097004 -0.011289747
0.06593851 0.052469194 0.028660377 -0.03718542 -0.031483453 -0.0043115625 -0.0033614314 0.012010084
-0.035214327 0.02709475 -0.040316314 0.062167928 0.0072512124 0.042107355 -0.025882158 0.05612022
0.041204985 0.032589026 -0.05696767 -0.009913456 -0.042600885 0.050150342 -0.044682257 0.060809273
-0.045182705 0.0028068654 -0.0090318695 0.019252542 -0.03691929 0.061976243 -0.029566 -0.043629687
-0.05375355 -0.032320976 0.027237583 0.0021320998 0.037287798 0.014212236 -0.0045464267 0.03037539
-0.049864568 -0.012537513 -0.015631406 -0.031593524 0.025258088 0.038138554 0.007141105 0.0201434
0.0010321118 -0.04739696 -0.04085978 0.0051860516 -0.0049562976 -0.006817927 0.05953396 -0.045533296
-0.02990269 0.002805653 0.014830279 -0.062155932 -0.0034086073 0.054231424 0.028821263 -0.05750306
-0.034097772 0.05359193 0.03054353 0.016799169 -0.0007370896 0.018558761 0.040074386 -0.004924136
0.06478525 0.01849834 -0.008883205 0.022563964 0.042503715 0.034746785 -0.01933268 -0.02104231
-0.021889884 0.001403148 0.048567593 -0.014075863 0.033806793 0.006402728 0.029790645 -0.027285714
-0.052140087 -0.017425412 -0.0064170053 0.05574353 0.012805373 -0.055695876 -0.00071184785 -0.005449348
-0.0022483107 -0.0060636457 0.030722503 -0.030043883 -0.04279324 -0.010592516 -0.053927932 0.05756515
-0.00063598354 0.00768686 -0.0003641101 -0.056888435 -0.00030417566 -0.05694536 -0.04096921 0.0086640045
-0.04692487 -0.046705175 -0.02848308 -0.052796017 -0.05102392 0.0025814867 -0.013495693 -0.0011834535
0.00078122347 0.056797378 -0.0044145933 0.02389752 0.009906098 -0.008657721 0.014805088 -0.006023058
0.06304737 0.041957825 0.03279167 0.013857556 -0.043817475 0.020457497 -0.023254199 0.04491282
0.035985354 -0.033988506 0.05368791 -0.012473496 0.046102844 0.053150855 0.045322936 0.040607207
-0.03806075 -0.016387274 0.0059511485 0.013272607 -0.059559893 -0.041574005 -0.018604105 0.010730378
-0.057247467 0.010228945 0.039059963 0.046766594 0.03061415 -0.051297024 -0.001573659 -0.025961805
-0.0040367967 0.041263774 -0.019916391 -0.019769637 0.035194617 -0.029646415 0.025415836 -0.024125988
-0.032679897 -0.046964638 -0.06238162 0.0032946656 0.058596104 0.010106296 -0.0394167 -0.03844102
0.008333181 -0.020593142 -0.04105839 0.018987581 -0.020665586 0.048206586 0.018469114 0.019093158
0.058167085 0.0113093 -0.021950766 -0.019666685 0.059399083 -0.043488894 0.055036187 -0.06012806
0.036805633 0.05973863 -0.059014086 -0.03158226 0.03417048 0.025241464 -0.04457087 -0.029714175
-0.05745924 -0.020875093 -0.0056891697 0.028802775 -0.0491439 0.01797985 0.06177663 -0.054039367
00000000: b60e 01bd 2300 ca3c 5b70 343d e3a4 203d
00000010: e987 243c bf8d 3c3d 3ccf a7bc 7ea8 883c
00000020: ed6b 813c ede0 063d 251c 0c3d 046b 92bb
00000030: 5dfe 213d 0f74 2bbd df1d b03c b179 09bc
00000040: 3a70 70bc 461a 393d eecf fd3b b39c b33c
00000050: db67 093a 801b 6dbc de07 b339 3657 bcbc
00000060: a3ad 773d 5ebe d83c fd14 19bd f443 6bbc
00000070: eb38 fbbc 012a 9ebc efc5 6dbd 03ef 9d3c
00000080: 6907 043c 7c29 3c3d b9f8 6abd add8 513d
00000090: 284e 24bd 053c dd3c 2610 cabc 8769 adbc
000000a0: c7c3 42bd ceb2 8cbb 859d 16bc fa9b dcbc
000000b0: 9801 6fbc 5dd0 d6bc 2e24 20bd a2f8 38bc
000000c0: c50a 873d f0e9 563d 2bc9 ea3c bd4f 18bd
000000d0: cbf4 00bd 0248 8dbb 764b 5cbb f2c5 443c
000000e0: e63c 10bd cff5 dd3c b822 25bd cca3 7e3d
000000f0: 949b ed3b c378 2c3d d206 d4bc 51de 653d
00000100: 8fc6 283d 127c 053d ee56 69bd 0c6c 22bc
00000110: 447e 2ebd 726a 4d3d be04 37bd 2513 793d
00000120: 8011 39bd 63f3 373b 68fa 13bc 82b7 9d3c
00000130: ae38 17bd cdda 7d3d 6534 f2bc 0bb5 32bd
00000140: af2c 5cbd 0063 04bd 5a21 df3c b3ba 0b3b
00000150: 17bb 183d 70da 683c 31fa 94bb cfd5 f83c
00000160: ca3e 4cbd 246a 4dbc 6f0d 80bc 3668 01bd
00000170: 0dea ce3c 2c37 1c3d eeff e93b c603 a53c
00000180: ed47 873a 5123 42bd 965c 27bd c1ef a93b
00000190: 7068 a2bb eb68 dfbb e2d9 733d 1f81 3abd
000001a0: 7cf6 f4bc 0cdf 373b b3fa 723c 3897 7ebd
000001b0: f162 5fbb c521 5e3d 921a ec3c 5488 6bbd
000001c0: 1baa 0bbd 3683 5b3d 6d36 fa3c 699e 893c
000001d0: 3f39 41ba 8b08 983c 0a25 243d a65a a1bb
000001e0: 21ae 843d d589 973c dd8a 11bc 10d8 b83c
000001f0: 6018 2e3d a552 0e3d 925f 9ebc ec60 acbc
00000200: 6a52 b3bc d6e9 b73a d0ee 463d 739e 66bc
00000210: fe78 0a3d facd d13b 830b f43c 4a86 dfbc
00000220: d890 55bd bdbf 8ebc be45 d2bb 5453 643d
00000230: a1cd 513c 5c21 64bd 4d9b 3aba 7290 b2bb
00000240: 6558 13bb 8cb1 c6bb c2ad fb3c 971e f6bc
00000250: f747 2fbd 3b8c 2dbc 89e3 5cbd 6fc9 6b3d
00000260: 22b8 26ba 0ee2 fb3b 08e6 beb9 d903 69bd
00000270: c479 9fb9 8a3f 69bd 55cf 27bd 78f3 0d3c
00000280: 4b34 40bd ed4d 3fbd 5955 e9bc a340 58bd
00000290: 75fe 50bd 292e 293b 0a1d 5dbc 1c1e 9bba
000002a0: 05cb 4c3a 5ea4 683d 4ba8 90bb bbc4 c33c
000002b0: 304d 223c 1dd9 0dbc 0a91 723c 135d c5bb
000002c0: fb1e 813d f8db 2b3d 8f50 063d cd0a 633c
000002d0: f479 33bd 7b96 a73c 977f bebc 81f6 373d
000002e0: 6165 133d 8837 0bbd dbe7 5b3d a25d 4cbc
000002f0: 56d6 3c3d b6b4 593d 8ba4 393d be53 263d
00000300: 97e5 1bbd 9b3e 86bc da01 c33b 5975 593c
00000310: 13f5 73bd 8149 2abd a367 98bc 78ce 2f3c
00000320: 527c 6abd 4e97 273c 57fd 1f3d 548e 3f3d
00000330: 87ca fa3c d41c 52bd 3c43 ceba daad d4bc
00000340: 1b47 84bb 3404 293d b327 a3bc eff3 a1bc
00000350: 3b28 103d 0add f2bc df34 d03c dda3 c5bc
00000360: 5bdb 05bd fe5d 40bd df83 7fbd 51eb 573b
00000370: 7802 703d e194 253c 6873 21bd 5574 1dbd
00000380: e587 083c f3b2 a8bc d82c 28bd d88b 9b3c
00000390: e04a a9bc 4574 453d 8a4c 973c 4169 9c3c
000003a0: 9c40 6e3d a44a 393c 18d2 b3bc 071c a1bc
000003b0: 744c 733d 6921 32bd a06d 613d d748 76bd
000003c0: 81c1 163d 7eb0 743d c1b8 71bd 665c 01bd
000003d0: 58f6 0b3d 30c7 ce3c f28f 36bd 246b f3bc
000003e0: 615a 6bbd 3e02 abbc 376c babb ccf3 eb3c
000003f0: 1d4b 49bd 7a4a 933c 7e09 7d3d 6258 5dbd

residual_block.0.conv_squeeze.bias f4 [16]
-0.038674332 -0.0101463385 -0.049680203 -0.048131626 0.035256423 -0.031665415 -0.015899837 -0.0198614
0.060033437 0.008202166 0.046853695 -0.050848264 0.02098708 -0.03851627 -0.05088265 -0.025944108
00000000: fa68 1ebd d43c 26bc 787d 4bbd ab25 45bd
00000010: 0a69 103d 98b3 01bd 6040 82bc 60b4 a2bc
00000020: 9fe5 753d 6162 063c a9e9 3f3d 4546 50bd
00000030: 19ed ab3c 3dc3 1dbd 536a 50bd bd88 d4bc

residual_block.1.conv_expand.weight f4 [256, 16, 3, 3]
0.04184811 -0.059326734 -0.07735266 -0.073107034 0.044019658 0.050300542 0.017943125 0.049064264
0.00080077857 0.061256446 0.012195447 -0.016708503 -0.029306794 0.04644707 0.023108138 -0.050847493
0.06220731 0.004044483 -0.0042347247 -0.01519998 0.07806964 0.07366595 0.021761809 0.020819832
-0.071946844 -0.076423675 0.038682543 0.07921333 -0.05753168 -0.017121756 -0.057940617 0.034919564
-0.07415882 -0.039137237 -0.085510924 0.06706714 -0.014708391 -0.02435148 -0.009424913 -0.07244829
0.061055243 -0.0032584218 -0.043355677 0.064919814 -0.050626554 -0.04077137 0.057018377 0.052096996
-0.013547601 0.030594222 0.05685583 -0.06698744 0.019205566 0.04849515 -0.067387715 -0.009202171
0.0038075214 -0.00313475 -0.022529675 -0.0003501144 0.07446276 0.085878804 0.08212544 -0.0852022
0.009420023 0.05471528 -0.005714344 -0.060690634 -0.05364327 -0.025496107 0.034922823 -0.06812426
0.011646452 -0.04142985 0.0014870928 -0.067423895 -0.018724745 -0.0012161563 0.012616711 -0.025822368
-0.0062934603 0.030090319 -0.0032439197 0.03608003 0.0010934912 -0.006818658 -0.07651797 -0.06868143
-0.011673482 -0.024780298 0.042077437 -0.0049439706 0.005433029 -0.033229757 0.067393646 0.004544492
0.052257095 -0.0049274564 -0.05700896 -0.045442153 0.0770681 -0.073367536 -0.07539304 -0.043590937
0.048314005 -0.075155646 -0.043308705 -0.0030400183 -0.0659539 0.060879942 -0.0036658142 -0.036072236
-0.03752168 0.010328094 0.02125048 -0.03148806 0.055088293 0.07953948 -0.022586225 -0.0019172232
-0.030332228 0.0068576527 0.055762082 -0.053978886 0.07683926 0.055928156 0.075302996 -0.06378132
0.015872259 -0.07943514 -0.043585084 0.05838488 0.011260531 0.009421933 0.036124516 0.0052837986
-0.02889922 0.0063607576 0.019032005 -0.011686048 -0.04771062 0.053775325 0.08479604 -0.05074634
0.072730154 0.06259747 -0.025816135 0.068868995 -0.07702755 0.012514792 -0.08097232 -0.063474104
0.08443746 -0.01841753 0.02615144 0.00014803298 0.0423352 -0.04188889 -0.032122362 0.05910961
0.04713442 0.023647225 -0.012403573 -0.024543235 0.08816454 -0.06575406 -0.07524499 0.06594115
0.07822034 -0.033226524 0.062168676 -0.011258207 0.08554585 0.053965643 0.019067375 0.04812659
-0.06089945 -0.06511993 -0.05835577 -0.07055255 -0.057624012 0.07450659 -0.0065189595 0.06873392
-0.04987131 0.025038062 -0.0031036623 0.09478017 -0.04175144 -0.057242833 -0.046871793 0.025636977
0.09058873 0.042796344 -0.051273655 -0.03628068 0.052315798 -0.071417496 -0.020479403 -0.08023925
0.049942046 -0.042121492 -0.058373664 -0.058130596 -0.05706868 -0.051047307 0.077238396 -0.06642693
0.040334415 0.020668915 -0.0014404132 -0.042130996 0.009140144 -0.07781392 -0.05474784 -0.014245599
-0.06936958 -0.023223612 0.044680636 0.007511786 0.04114509 -0.008341591 0.027778089 -0.005133038
-0.027440712 0.03113909 -0.0628365 -0.019855333 0.031613946 -0.015247149 -0.080868274 -0.029335996
-0.02391968 0.037127566 0.014248512 0.031253316 0.024678364 0.081300564 0.06559226 0.07003315
0.021889035 -0.062862776 0.058407553 0.026181484 -0.06240263 -0.008175047 0.026451409 0.075482585
0.0778385 -0.058797438 -0.04840832 0.059873275 0.08107404 0.045636006 -0.0065355618 -0.0015105832
00000000: ec68 2b3d 9700 73bd 126b 9ebd 24b9 95bd
00000010: f54d 343d f107 4e3d 76fd 923c 9cf7 483d
00000020: 57eb 513a 0ae8 7a3d 6acf 473c 45e0 88bc
00000030: cd14 f0bc 483f 3e3d 474d bd3c 7645 50bd
00000040: 18cd 7e3d 9587 843b 72c3 8abb 5609 79bc
00000050: fae2 9f3d 2cde 963d d245 b23c 5a8e aa3c
00000060: de58 93bd 0484 9cbd 9671 1e3d 993a a23d
00000070: 57a6 6bbd ed42 8cbc 2453 6dbd d107 0f3d
00000080: 94e0 97bd 5e4e 20bd 5a20 afbd 7f5a 893d
00000090: 77fb 70bc c17c c7bc f36a 1abc c55f 94bd
000000a0: 1015 7a3d 3f8b 55bb b995 31bd aef4 843d
000000b0: ca5d 4fbd e1ff 26bd 1a8c 693d a963 553d
000000c0: c2f6 5dbc bca0 fa3c a9e1 683d b630 89bd
000000d0: fe54 9d3c daa2 463d 9202 8abd b4c4 16bc
000000e0: 9c87 793b 6170 4dbb 2790 b8bc 8f8f b7b9
000000f0: ee7f 983d 3ae1 af3d 6231 a83d 7e7e aebd
00000100: 7156 1a3c 211d 603d 643f bbbb be96 78bd
00000110: 0cb9 5bbd 36dd d0bc 3c0b 0f3d bb84 8bbd
00000120: c3d0 3e3c 59b2 29bd 8eea c23a 8a15 8abd
00000130: a364 99bc 6f67 9fba 52b6 4e3c 6e89 d3bc
00000140: 5f39 cebb f97f f63c f197 54bb a7c8 133d
00000150: 7a53 8f3a 0d6f dfbb 74b5 9cbd d9a8 8cbd
00000160: 2242 3fbc 0d00 cbbc 6459 2c3d 0801 a2bb
00000170: 8d07 b23b ed1b 08bd ae05 8a3d f6e9 943b
00000180: 890b 563d 8076 a1bb 3a82 69bd 8d21 3abd
00000190: e1d5 9d3d b841 96bd ab67 9abd 698c 32bd
000001a0: e8e4 453d 34eb 99bd 7864 31bd 0b3b 47bb
000001b0: d712 87bd 3f5d 793d 283e 70bb 7bc0 13bd
000001c0: 55b0 19bd 2a37 293c 7d15 ae3c a0f9 00bd
000001d0: 43a4 613d 98e5 a23d bf06 b9bc 564b fbba
000001e0: 4b7b f8bc 29b6 e03b c866 643d f718 5dbd
000001f0: e75d 9d3d ec14 653d 7538 9a3d c89f 82bd
00000200: 8a06 823c e4ae a2bd 4686 32bd fc24 6f3d
00000210: 177e 383c 745e 1a3c 4df7 133d b723 ad3b
00000220: 0fbe ecbc e76d d03b 02e9 9b3c d676 3fbc
00000230: 366c 43bd 8443 5c3d 8ca9 ad3d 65db 4fbd
00000240: 8cf3 943d 1a33 803d 5c7c d3bc 300b 8d3d
00000250: 9fc0 9dbd d80a 4d3c d1d4 a5bd b6fe 81bd
00000260: 8ced ac3d 5ce0 96bc 8b3b d63c 4d39 1b39
00000270: ad67 2d3d af93 2bbd bd92 03bd eb1c 723d
00000280: 0610 413d d3b7 c13c 5b38 4bbc e50e c9bc
00000290: 9c8f b43d 11aa 86bd 0c1a 9abd 270c 873d
000002a0: fc31 a03d 8918 08bd 95a4 7e3d 5874 38bc
000002b0: aa32 af3d 140b 5d3d 2f33 9c3c 6320 453d
000002c0: b471 79bd 995d 85bd 7606 6fbd db7d 90bd
000002d0: 2807 6cbd e996 983d ff9c d5bb 5fc4 8c3d
000002e0: dc45 4cbd 9f1c cd3c d066 4bbb 1b1c c23d
000002f0: 8f03 2bbd 7677 6abd a3fc 3fbd a304 d23c
00000300: 9686 b93d 384b 2f3d 5304 52bd 0d9b 14bd
00000310: 1749 563d 5643 92bd 6cc4 a7bc 7a54 a4bd
00000320: 0890 4c3d 9687 2cbd 3919 6fbd 591a 6ebd
00000330: d9c0 69bd fb16 51bd 2a2f 9e3d d80a 88bd
00000340: b335 253d db51 a93c 3fcc bcba 8d91 2cbd
00000350: 8bc0 153c e85c 9fbd 453f 60bd 5f66 69bc
00000360: a311 8ebd 723f bebc 0b03 373d 6e25 f63b
00000370: c187 283d 2bab 08bc e08e e33c 0b33 a8bb
00000380: 58cb e0bc 6817 ff3c 6cb0 80bd a7a7 a2bc
00000390: a07d 013d 2ecf 79bc 449e a5bd 0b52 f0bc
000003a0: 34f3 c3bc 1313 183d 9772 693c 7a03 003d
000003b0: 482a ca3c e980 a63d 3c55 863d 8a6d 8f3d
000003c0: a250 b33c 33be 80bd c23c 6f3d 8d7a d63c
000003d0: e699 7fbd a2f0 05bc a0b0 d83c 9d96 9a3d
000003e0: cb69 9f3d 95d5 70bd cd47 46bd ae3d 753d
000003f0: 250a a63d d2ec 3a3d 4428 d6bb c3fe c5ba

residual_block.1.conv_squeeze.weight f4 [16, 256, 1, 1]
-0.0053861216 0.06293851 -0.05487775 -0.04257958 0.051680975 0.041980613 0.040570457 -0.022969153
-0.037445627 -0.020871945 -0.046938926 0.018869039 -0.0017778119 0.022546377 0.0068805637 -0.016523533
0.0332724 0.016897148 0.025150195 -0.010828426 -0.04957096 -0.052872688 0.0335915 -0.034334533
-0.022333687 0.050937556 -0.011453437 0.058047928 0.03690472 -0.0296866 -0.03524811 -0.006513627
-0.039257806 0.04505036 0.057919417 -0.05858781 -0.0295163 -0.029727794 -0.009263499 0.014721089
0.055102974 0.00052963896 0.05636231 0.011766916 -0.01540811 0.031353418 0.029081363 -0.052626703
-0.0119755035 0.058564484 0.007428068 0.043734893 0.04898834 0.03953793 0.043865807 0.05056085
-0.04506961 0.059284035 0.014085074 -0.04706517 -0.0034058962 0.0038816226 0.040878695 0.0048290677
0.028301973 -0.058326047 0.00818805 -0.04697934 -0.051065095 0.056041133 -0.024316607 0.06029668
-0.042910807 0.020224819 0.012138013 0.01635626 -0.049784083 -0.03568108 -0.060346585 0.038868442
0.029817803 0.050397888 0.06770332 0.03321306 0.00012219416 0.02240261 -0.05709834 -0.049513977
0.01298409 0.012674284 0.038492147 -0.05314846 0.019688252 -0.010418525 -0.0384924 0.002120761
-0.049804293 0.06172006 -0.060898382 0.052307934 0.050266147 -0.051701725 0.019888645 -0.039903257
-0.045393 -0.008776923 0.05399518 -0.011159554 0.03947844 0.008916311 -0.00424231 0.005259502
0.05565174 -0.061829586 0.036546532 -0.006570053 0.03495246 -0.010302588 0.047989238 -0.03572017
-0.049242813 0.030246535 -0.034859873 0.010101433 -0.03295717 -0.027457288 -0.028886614 0.037943494
0.04744222 0.06240787 -0.03708278 -0.045899473 0.031529598 -0.037057053 0.010193051 0.02630516
-0.026226228 -0.057546243 0.05183145 -0.022564268 0.024541078 0.007822447 0.040982705 0.015918754
-0.05893321 0.010012252 -0.0047433884 -0.054379597 0.026520055 -0.051260266 0.060622636 0.014303812
0.012325189 0.05857191 0.056837086 0.010539674 -0.01701358 0.0050459844 0.055040263 0.019378865
-0.025240548 0.033760343 -0.025266655 -0.0031304825 0.038109306 -0.060876396 0.011676422 0.021958342
0.023125881 -0.0048897075 0.0069201845 0.0017510436 -0.01510271 -0.0036290828 -0.013257595 0.04148959
0.02681379 0.019363081 0.001980343 0.015064764 -0.045698766 -0.015141064 -0.05569428 0.009220614
-0.024284326 0.015182483 -0.04466645 0.004545141 0.04760935 -0.013361739 0.053452462 0.024067743
0.0112930415 0.0049635055 -0.024627252 -0.015737973 0.051417086 -0.0048676888 -0.05532408 -0.03532698
-0.060279187 0.02532121 0.02396496 0.0016189299 0.054040074 0.05617979 -0.018087838 -0.028604992
-0.027918404 0.05587425 0.027786797 0.0027922534 0.019532334 -0.053540867 -0.05182646 0.028524231
-0.05055792 0.004267138 0.0025702578 -0.01198839 -0.04393618 0.04331761 0.038804892 0.04114334
0.02063956 -0.030602818 0.015217275 -0.037933506 -0.049981922 0.016921712 -0.059844416 0.027409935
0.0073728394 -0.011110815 0.046098556 0.025441824 -0.046279233 0.05890366 0.06244556 -0.030923378
-0.039852124 -0.039019533 -0.03326905 0.0025095036 -0.01902624 0.030798249 -0.0274161 -0.0007078465
0.027715592 -0.04616875 0.037947774 0.021852441 -0.0003135851 0.060617335 -0.032166358 -0.0038447496
00000000: 107e b0bb e8e5 803d 7ec7 60bd ed67 2ebd
00000010: 6eaf 533d ddf3 2b3d 352d 263d ce29 bcbc
00000020: 9660 19bd a4fb aabc 0843 40bd 3e93 9a3c
00000030: 7805 e9ba 2eb3 b83c 5a76 e13b 5c5c 87bc
00000040: a448 083d e36b 8a3c c807 ce3c b669 31bc
00000050: eb0a 4bbd 0891 58bd 3e97 093d 5ea2 0cbd
00000060: 23f5 b6bc e6a3 503d 32a7 3bbc aac3 6d3d
00000070: 6729 173d 5031 f3bc 5260 10bd 4370 d5bb
00000080: cbcc 20bd ba86 383d e93c 6d3d c5f9 6fbd
00000090: 2bcc f1bc b487 f3bc eec5 17bc b930 713c
000000a0: a8b3 613d 78d7 0a3a 2adc 663d 06ca 403c
000000b0: 4c72 7cbc 716c 003d 0a3c ee3c 198f 57bd
000000c0: e734 44bc 50e1 6f3d 2767 f33b 5c23 333d
000000d0: ffa7 483d 86f2 213d a2ac 333d e518 4f3d
000000e0: e99a 38bd d1d3 723d 15c5 663c 68c7 40bd
000000f0: 7535 5fbb d262 7e3b 6b70 273d 283d 9e3b
00000100: 8ad9 e73c 4be7 6ebd 2c27 063c 696d 40bd
00000110: a229 51bd 638b 653d 9f33 c7bc a7f9 763d
00000120: 3ec3 2fbd 85ae a53c 84de 463c 90fd 853c
00000130: 65ea 4bbd 5326 12bd fb2d 77bd 8434 1f3d
00000140: 7744 f43c 046e 4e3d 0aa8 8a3d 6b0a 083d
00000150: 3f21 0039 ae85 b73c f3df 69bd 2bcf 4abd
00000160: 38bb 543c cda7 4f3c f1a9 1d3d 33b2 59bd
00000170: 4249 a13c 76b2 2abc 35aa 1dbd 77fc 0a3b
00000180: 96ff 4bbd 2cce 7c3d 9570 79bd d840 563d
00000190: e0e3 4d3d 30c5 53bd 83ed a23c 9971 23bd
000001a0: 03ee 39bd 15cd 0fbc 0d2a 5d3d 90d6 36bc
000001b0: 25b4 213d b815 123c 1303 8bbb e757 ac3b
000001c0: 14f3 633d 0541 7dbd d1b1 153d 9949 d7bb
000001d0: 502a 0f3d 30cc 28bc 5d90 443d 504f 12bd
000001e0: d5b2 49bd 95c7 f73c 3ac9 0ebd 7b80 253c
000001f0: 19fe 06bd 1bee e0bc 9fa3 ecbc a36a 1b3d
00000200: c652 423d 659f 7f3d 1de4 17bd 1601 3cbd
00000210: 2e25 013d 23c9 17bd c100 273c eb7d d73c
00000220: 63d8 d6bc 9cb5 6bbd 374d 543d b3d8 b8bc
00000230: 5f0a c93c b929 003c 7bdd 273d 0c68 823c
00000240: f363 71bd 6e0a 243c 6d6e 9bbb 24bd 5ebd
00000250: 9640 d93c 49f6 51bd 714f 783d 895a 6a3c
00000260: 97ef 493c 19e9 6f3d 01ce 683d 99ae 2c3c
00000270: 1060 8bbc c958 a53b e671 613d 6dc0 9e3c
00000280: 44c5 cebc 4948 0a3d 04fc cebc c828 4dbb
00000290: 8118 1c3d 8759 79bd 774e 3f3c fbe1 b33c
000002a0: 7d72 bd3c d739 a0bb b7c2 e23b 4683 e53a
000002b0: 5b71 77bc e8d5 6dbb 6236 59bc fdf0 293d
000002c0: 98a8 db3c 539f 9e3c a4c8 013b 33d2 763c
000002d0: a12e 3bbd 3a12 78bc af1f 64bd 0f12 173c
000002e0: ecef c6bc f3bf 783c 2bf4 36bd 68ef 943b
000002f0: 0602 433d 32eb 5abc f8f0 5a3d b729 c53c
00000300: 7306 393c e7a4 a23b 17bf c9bc ecec 80bc
00000310: b99a 523d 2281 9fbb 819b 62bd 06b3 10bd
00000320: 4fe7 76bd 6d6e cf3c 2a52 c43c 4632 d43a
00000330: 2059 5d3d c81c 663d f22c 94bc 0455 eabc
00000340: 23b5 e4bc 66dc 643d 23a1 e33c 3dfe 363b
00000350: 4602 a03c ab4d 5bbd fb47 54bd a6ab e93c
00000360: d215 4fbd 59d3 8b3b c571 283b f46a 44bc
00000370: 6df6 33bd ce6d 313d e1f1 1e3d eb85 283d
00000380: 4b14 a93c c3b2 fabc e151 793c 2a60 1bbd
00000390: d8b9 4cbd 679f 8a3c 6b1f 75bd cd8a e03c
000003a0: dc97 f13b 230a 36bc d7d1 3c3d 5f6b d03c
000003b0: 4b8f 3dbd f744 713d eac6 7f3d 0653 fdbc
000003c0: fb3b 23bd f2d2 1fbd 2145 08bd 7c76 243b
000003d0: ebdc 9bbc 9c4c fc3c bb97 e0bc c68e 39ba
000003e0: cf0b e33c 711b 3dbd 206f 1b3d e403 b33c
000003f0: ae68 a4b9 e249 783d dfc0 03bd 32f8 7bbb

residual_block.1.conv_squeeze.bias f4 [16]
0.0055469302 -0.040919337 0.016484518 0.020578459 -0.030925373 0.04953601 -0.036097568 0.0116904685
-0.039641656 0.058471918 0.02002299 0.03443299 -0.06036531 -0.019963108 0.026021544 0.05361266
00000000: 06c3 b53b 099b 27bd 8a0a 873c 2894 a83c
00000010: 3557 fdbc 45e6 4a3d 0bdb 13bd 6189 3f3c
00000020: 4a5f 22bd 4080 6f3d 4107 a43c 9b09 0d3d
00000030: 9e41 77bd ac89 a3bc 222b d53c f398 5b3d

residual_block.2.conv_expand.weight f4 [256, 16, 3, 3]
0.016576994 -0.03107814 -0.05339744 -0.049506284 -0.0668191 0.028893957 0.018588126 0.048418798
-0.040627968 0.03734846 0.019572167 -0.03213856 0.017039172 -0.011886662 -0.0013553157 0.044691205
-0.05807143 0.061265912 0.024547147 -0.014925789 0.07201418 0.019119386 0.047333788 0.020864623
-0.041431185 0.056933135 -0.05460658 0.08178323 -0.06245137 -6.7938556e-05 -0.07966061 -0.07891025
0.0127341915 0.012015834 -0.024168864 0.01746205 -0.049831994 -0.004823866 -0.064840265 0.019647138
-0.030092184 -0.058492944 -0.013643041 -0.0691475 0.038657464 0.017697057 -0.006910372 0.03905657
0.012353517 -0.037163652 0.03021412 0.045683045 -0.06292285 0.0074058473 -0.048932035 -0.083755754
0.004645519 0.0037177715 -0.0145980185 0.05543669 0.061285622 -0.0768473 0.042670887 0.059150577
-0.048206314 0.027169501 -0.0072146533 -0.07267757 0.03954199 -0.021023665 0.076249644 -0.04405701
-0.060463496 -0.056405704 0.009748321 -0.057502262 0.060702723 0.006513123 -0.058763836 -0.0074291294
-0.0069074864 -0.0812627 0.07432619 -0.047022566 -0.07539932 -0.04248437 0.077131815 -0.018959463
-0.016257925 -0.0412357 0.05296402 0.051925596 -0.029489119 -0.08127465 0.002150414 -0.07516399
-0.08054397 0.034416 -0.054946285 -0.049486574 -0.012349283 0.026087929 -0.07486802 -0.019113913
0.024164658 0.043796275 0.054829724 -0.05425245 -0.056520723 -0.07713982 0.06012986 0.048005313
-0.031899348 -0.075014964 0.07326729 0.015081478 0.0054710596 0.006124483 -0.0005155138 -0.065876335
0.01848322 0.005230204 -0.0061408607 0.066285305 -0.082552135 -0.05197189 0.010517213 0.04774707
0.025292596 -0.042482756 0.06328277 0.024197938 0.04350701 -0.015321114 0.049157508 -0.028892098
-0.0008466115 0.06725462 -0.07349333 0.045443706 0.060334507 -0.02240986 0.036908757 0.023942566
-0.07673203 0.0076385997 -0.032090716 -0.027831662 0.05073166 0.03020133 -0.073287666 -0.050625622
0.0049287924 -0.0024604334 -0.05722342 -0.07837094 0.05425528 -0.019422246 -0.07360338 -0.057061292
0.0780714 -0.06424899 0.011912157 -0.014352648 -0.0654615 0.02929839 0.0013082708 0.045581948
-0.04338696 0.015096452 0.07829988 0.061849587 -0.08444073 0.019043282 0.06886778 -0.05955326
-0.045599107 0.07906287 -0.07867604 0.07351034 -0.01356672 0.0116180265 -0.07877067 0.049696583
-0.0013640194 -0.04444318 0.011693823 -0.007855829 -0.055037174 0.074725464 -0.010421438 0.027516233
0.07509011 0.04034129 0.005788427 0.01851688 -0.011341701 -0.03772013 0.024102066 0.064033054
0.038486242 0.07965423 0.04578397 0.00037772968 0.027211335 0.0072163427 0.067216694 0.022052057
-0.06795367 -0.049638074 -0.04341808 -0.0508107 -0.048208944 0.04321839 0.0067429664 -0.050605793
-0.04159531 -0.0091364505 -0.04097024 -0.00891923 -0.03556943 -0.031043045 0.05995611 0.012109874
0.027565701 -0.040271807 -0.06735298 -0.071315415 -0.07343219 -0.07346113 -0.064903036 -0.068630464
-0.027854929 -0.041730937 -0.006649437 0.008059416 -0.063642815 0.01628514 -0.021772387 0.051843226
0.083151855 -0.08302066 -0.033725362 -0.071858145 0.041482814 -0.07782554 0.0752478 -0.024567744
0.025407083 0.052918658 -0.060497455 0.024506386 -0.081214465 -0.07235354 0.071913004 -0.039418228
00000000: 7acc 873c 9597 febc 46b7 5abd 1ac7 4abd
00000010: 74d8 88bd 05b3 ec3c 2046 983c ca52 463d
00000020: 8369 26bd b3fa 183d cf55 a03c b9a3 03bd
00000030: bc95 8b3c 46c0 42bc d9a4 b1ba 200e 373d
00000040: 4fdc 6dbd f7f1 7a3d 1917 c93c 4c8b 74bc
00000050: 2c7c 933d 42a0 9c3c 13e1 413d 49ec aa3c
00000060: bfb3 29bd b832 693d 26ab 5fbd f77d a73d
00000070: 02cd 7fbd 3c7a 8eb8 1a25 a3bd b29b a1bd
00000080: 12a3 503c 10de 443c c8fd c5bc 930c 8f3c
00000090: a21c 4cbd 8511 9ebb f9ca 84bd 09f3 a03c
000000a0: e283 f6bc 4c96 6fbd 1087 5fbc 349d 8dbd
000000b0: 4a57 1e3d 6bf9 903c 6770 e2bb c8f9 1f3d
000000c0: 6866 4a3c ea38 18bd 9a83 f73c 251e 3b3d
000000d0: b2dd 80bd c0ac f23b f56c 48bd 2388 abbd
000000e0: 7039 983b dba5 733b 872c 6fbc 9511 633d
000000f0: a206 7b3d 1e62 9dbd abc7 2e3d e047 723d
00000100: fc73 45bd 9392 de3c e668 ecbb fad7 94bd
00000110: c8f6 213d d239 acbc c628 9c3d 2075 34bd
00000120: 92a8 77bd ab09 67bd 6cb7 1f3c 7e87 6bbd
00000130: 6ba3 783d 096c d53b 59b2 70bd 0e70 f3bb
00000140: 3258 e2bb 0f6d a6bd 5438 983d bc9a 40bd
00000150: f56a 9abd 1704 2ebd 49f7 9d3d e050 9bbc
00000160: 572f 85bc c4e6 28bd cdf0 583d efaf 543d
00000170: 2a93 f1bc 5373 a6bd f6ed 0c3b 94ef 99bd
00000180: 3df4 a4bd cbf7 0c3d 5b0f 61bd 6fb2 4abd
00000190: a654 4abc 5ab6 d53c 6854 99bd c894 9cbc
000001a0: f6f4 c53c b963 333d 2295 603d d137 5ebd
000001b0: 4682 67bd 7bfb 9dbd ba4a 763d 38a1 443d
000001c0: e4a8 02bd 72a1 99bd 290d 963d 4e18 773c
000001d0: 9346 b33b e3af c83b 8c23 07ba 2cea 86bd
000001e0: 1f6a 973c 2262 ab3b 4639 c9bb 97c0 873d
000001f0: 1811 a9bd 7ae0 54bd 6350 2c3c 6f92 433d
00000200: 6b32 cf3c 6602 2ebd 669a 813d c13a c63c
00000210: 6834 323d 6905 7bbc 6259 493d 1faf ecbc
00000220: 23ef 5dba cabc 893d ac83 96bd 2e23 3a3d
00000230: 5121 773d e294 b7bc a32d 173d 3323 c43c
00000240: af25 9dbd 384d fa3b 8e71 03bd 3aff e3bc
00000250: 00cc 4f3d c868 f73c d817 96bd d05c 4fbd
00000260: b581 a13b 393f 21bb 1b63 6abd f280 a0bd
00000270: c93a 5e3d 671b 9fbc 5ebd 96bd 1ab9 69bd
00000280: e6e3 9f3d f994 83bd 352b 433c 5e27 6bbc
00000290: ae10 86bd 2d03 f03c 497a ab3a 23b4 3a3d
000002a0: 86b6 31bd 1c57 773c b05b a03d fe55 7d3d
000002b0: 43ef acbd a800 9c3c 8d0a 8d3d 1fee 73bd
000002c0: 21c6 3abd b7eb a13d e720 a1bd 978c 963d
000002d0: f346 5ebc 8959 3e3c 8452 a1bd a58e 4b3d
000002e0: e5c8 b2ba 0d0a 36bd 7397 3f3c bcb5 00bc
000002f0: a96e 61bd aa09 993d aebe 2abc b969 e13c
00000300: d8c8 993d e93c 253d d8ac bd3b b6b0 973c
00000310: 8bd2 39bc 6c80 1abd b271 c53c c323 833d
00000320: c0a3 1d3d c221 a33d f987 3b3d 050a c639
00000330: 4eea de3c 1277 ec3b e8a8 893d 84a6 b43c
00000340: 4b2b 8bbd 4b51 4bbd 28d7 31bd e11e 50bd
00000350: be76 45bd c405 313d 1af4 dc3b 0548 4fbd
00000360: d85f 2abd 0db1 15bc 69d0 27bd f621 12bc
00000370: 40b1 11bd fc4d febc 8a94 753d 7e68 463c
00000380: 77d1 e13c 0df4 24bd 5cf0 89bd d10d 92bd
00000390: 9e63 96bd ca72 96bd e2eb 84bd 218e 8cbd
000003a0: 0530 e4bc 0fee 2abd 85e3 d9bb a40b 043c
000003b0: 2a57 82bd 6a68 853c 015c b2bc 9059 543d
000003c0: 854b aa3d bc06 aabd 9b23 0abd 5d2a 93bd
000003d0: e2e9 293d ff62 9fbd 851b 9a3d 4b42 c9bc
000003e0: 8422 d03c 3cc1 583d 2ecc 77bd 9ec1 c83c
000003f0: c553 a6bd 182e 94bd 2047 933d 0275 21bd
