model_params/x4sesr.pth (torch, 964984 bytes, 15 tensors)

conv_first.conv_expand.weight f4 [256, 1, 5, 5]
0	0x3947b80b	0.0001904668
1	0x39db7afd	0.00041862568
2	0xba970a86	-0.0011523522
3	0xb9e3c16e	-0.0004344093
4	0x3a33af32	0.0006854414
5	0xb9cb6095	-0.00038791136
6	0xb9411df1	-0.00018417068
7	0xb86e8a21	-5.6872264e-05
8	0x3a5ffb8b	0.0008544258
9	0x3a00f036	0.0004918607
10	0x3a50fb94	0.00079720584
11	0xb8f0ef2b	-0.0001148864
12	0x395bb024	0.00020951085
13	0xb9fc761a	-0.00048153178
14	0xba3d97b6	-0.00072323845
15	0x3a8b0087	0.0010605016
16	0xbb037e01	-0.0020064118
17	0x3a7b48c3	0.00095857325
18	0x3a81ebdb	0.0009912209
19	0xba962f31	-0.0011458156
20	0xbaa54949	-0.0012610342
21	0x3ab97b68	0.0014151158
22	0x3a90785c	0.0011022198
23	0xbacef6fa	-0.0015790157
24	0x3a0ac7a5	0.00052940316
25	0xbba0d8b6	-0.0049086465
26	0x3c0855b9	0.008321219
27	0xbbbed57e	-0.00582379
28	0x3b664bbb	0.0035140354
29	0xba78451b	-0.0009470747
30	0x3c1d3fd6	0.009597739
31	0xbc580ae1	-0.0131861875
32	0x3c16ad90	0.009196654
33	0xbbfe27ba	-0.0077562006
34	0x3b0d458c	0.0021556346
35	0xbbf485fe	-0.007462262
36	0x3c0fa8ff	0.008768319
37	0xbbb7aba2	-0.005605177
38	0x3b8a914b	0.004228746
39	0x39836641	0.00025062452
40	0x3b94a189	0.004535858
41	0xbbd223e3	-0.0064129694
42	0x3b2534f7	0.0025208571
43	0xba330eac	-0.00068304944
44	0xba04d618	-0.0005067303
45	0xbaea2d36	-0.0017866257
46	0x3b4f6460	0.0031645522
47	0xba5204f9	-0.0008011605
48	0x39ac2622	0.00032834808
49	0xba3eac67	-0.0007273615
50	0xb95e3af5	-0.00021193533
51	0x3aba3c25	0.0014208598
52	0xbada59cd	-0.0016658843
53	0x3b462892	0.0030236584
54	0xbb335b76	-0.0027367747
55	0xb938b8b3	-0.00017616413
56	0x385ede66	5.313605e-05
57	0x3ad37cbd	0.0016135197
58	0xbbc26ab8	-0.005933132
59	0x3b9aadad	0.004720411
60	0x3a966a4c	0.0011475771
61	0xbac9bbc9	-0.0015391047
62	0xbaf86083	-0.0018949661
63	0x3bcd002b	0.0062561235
64	0xbb807d4e	-0.0039211875
65	0xbb57577d	-0.0032858544
66	0x3bb68222	0.0055697123
67	0xba967cfa	-0.0011481338
68	0xbb6e4096	-0.0036354414
69	0x3b45b954	0.0030170279
70	0x3b1b983b	0.002374186
71	0xbbae3cc3	-0.005317302
72	0x3b249009	0.0025110266
73	0x3a78badc	0.00094882934
74	0xba913124	-0.0011077267
75	0x3aa3f787	0.0012509682
76	0xbb240cc7	-0.002503203
77	0x3a4579d1	0.00075331057
78	0x392a80c7	0.00016260437
79	0xb85611c1	-5.103811e-05
80	0xbbabe5f3	-0.005245918
81	0x3bc4f764	0.0060109366
82	0xbb32ed9c	-0.002730227
83	0x3aa044e6	0.0012227565
84	0x3a205a57	0.00061169773
85	0x3bcf1b3c	0.0063203853
86	0xbbf6d739	-0.0075329808
87	0x3b9bd455	0.0047555366
88	0xbb6878c4	-0.0035472373
89	0x397a7e72	0.00023888962
90	0xbbcda65d	-0.0062759356
91	0x3c3a4eef	0.011371358
92	0xbbf2a4e1	-0.007404909
93	0x3bb13132	0.005407476
94	0xbb4a7afd	-0.003089606
95	0x3b803967	0.003913093
96	0xbbf9581f	-0.007609382
97	0x3ba1c501	0.004936815
98	0xbb43d5fe	-0.0029882188
99	0x3afac1a7	0.0019131199
100	0x3a0d92af	0.00054005807
101	0xbb1a98a1	-0.002358951
102	0x3b26d4dc	0.0025456464
103	0xbaef2573	-0.0018245414
104	0x3a1c7f9e	0.0005969944
105	0xb9da43ab	-0.00041630617
106	0x3b1c05e9	0.0023807234
107	0xbb3a66f9	-0.0028442724
108	0x3b54e045	0.0032482308
109	0xbb0aa67b	-0.002115636
110	0x39acc0f9	0.00032950172
111	0xba549c0d	-0.00081104116
112	0x3af8e549	0.0018989231
113	0xbb01821f	-0.0019761396
114	0x3a44891d	0.0007497238
115	0xba7b701e	-0.0009591597
116	0x3b0b65d9	0.0021270423
117	0xbb13243f	-0.0022452024
118	0x3b06eda1	0.0020588415
119	0xba998a51	-0.0011714195
120	0x3a2e118c	0.0006640188
121	0xbac31cf9	-0.0014885954
122	0x3792f798	1.7519851e-05
123	0xbac7f2ad	-0.0015254818
124	0x3b1b4a2b	0.002369533
125	0x3b460c3d	0.0030219697
126	0xbc141517	-0.009038231
127	0x3c26e98a	0.010187516
128	0xbc317de8	-0.010833241
129	0x3bc68227	0.006057996
130	0xbba1c75e	-0.0049370965
131	0x3c233a5c	0.009962644
132	0xbc4c3cb5	-0.012465646
133	0x3c47bb63	0.012190673
134	0xbb8532ed	-0.0040649087
135	0x3b0e08ce	0.0021672728
136	0xbb4d1acd	-0.0031296492
137	0x3b4e9518	0.0031521972
138	0xb99ed664	-0.00030295842
139	0xbb0d692d	-0.0021577582
140	0xb985bce5	-0.00025508474
141	0xbac51f70	-0.0015039276
142	0x3bc96b62	0.006146834
143	0xbc02a3f7	-0.007973663
144	0x3b9b591d	0.0047408477
145	0x39a6f2ed	0.0003184298
146	0x3b306bac	0.0026919646
147	0xbbd49cb2	-0.006488406
148	0x3be7865d	0.007065578
149	0xbb973f3e	-0.0046156934
150	0x3a042b13	0.0005041819
151	0xb9f324b5	-0.0004637592
152	0x38f7a12f	0.000118079006
153	0xba034a4a	-0.00050083234
154	0x3a72207f	0.00092364097
155	0x38b633fe	8.6881206e-05
156	0x39d3fd24	0.0004043366
157	0x39f3efba	0.00046527182
158	0xb9434ffa	-0.00018626443
159	0xba68c5f3	-0.00088795944
160	0xba34d47f	-0.00068981195
161	0x3a3c83e2	0.0007191283
162	0xba33f37c	-0.000686459
163	0x39a7e7a2	0.00032025302
164	0xb82839a4	-4.0108003e-05
165	0x3ab9af83	0.0014166686
166	0xbb43c039	-0.0029869212
167	0x3b1c4653	0.0023845627
168	0xbaf141eb	-0.0018406486
169	0x3a5e30ca	0.0008475898
170	0xbad06fd8	-0.0015902473
171	0x3b31aabf	0.002710983
172	0xbb16b856	-0.0022998056
173	0x3b061433	0.0020458817
174	0xb9b9f0cc	-0.00035465357
175	0xbac14b4c	-0.0014747172
176	0x3bb7eaf9	0.0056127277
177	0xbbb2b718	-0.0054539554
178	0x3b862a5d	0.0040944056
179	0xbb04540b	-0.0020191695
180	0x3b254125	0.002521583
181	0xbba3b58f	-0.0049960087
182	0x3bd3ba93	0.0064614504
183	0xbb825478	-0.0039773546
184	0xba0a692c	-0.0005279954
185	0xbaa703ff	-0.001274228
186	0x3b287169	0.0025702363
187	0xbb17f709	-0.0023188016
188	0xbaff1d9b	-0.0019463779
189	0x3b4a5df0	0.0030878745
190	0x39b6233b	0.00034739994
191	0xba089bf8	-0.00052112294
192	0xbb10eca5	-0.0022113707
193	0x3b57ffa2	0.0032958766
194	0xbad00686	-0.0015871085
195	0x3980395a	0.00024456793
196	0xbb28b417	-0.0025742108
197	0x3b50e1dc	0.0031872904
198	0xbad8c43c	-0.0016537975
199	0x3aba5613	0.0014216326
200	0xbe4f1580	-0.20223045
201	0x3d6e1113	0.058121752
202	0x3de172bd	0.11008213
203	0x3dd82ca6	0.10555391
204	0xbc966a28	-0.018361166
205	0xbe09d8dc	-0.13461632
206	0x3ec1b2db	0.37831768
207	0xbe4fd134	-0.20294648
208	0xbdc18a15	-0.09450165
209	0x3e00ff76	0.1259745
210	0x3e68b3c8	0.22724831
211	0xbe2e3429	-0.17012085
212	0xbf1b6159	-0.60695416
213	0x3e65e98c	0.22452372
214	0xbd1c310c	-0.038132712
215	0x3cc090a4	0.02350647
216	0x3de67a67	0.11253815
217	0x3ead211f	0.33814332
218	0xbdecff34	-0.11572114
219	0xbd109d60	-0.035306334
220	0xba8f5410	-0.0010935087
221	0x3b81d2b1	0.003961884
222	0xbe100c7b	-0.14067261
223	0x3d9a0d6c	0.07522091
224	0xbbf9309d	-0.007604672
225	0xbacb7428	-0.0015522288
226	0x3b442baa	0.0029933252
227	0xbb17e65c	-0.0023178076
228	0x3aadcf82	0.0013260695
229	0xb924c56c	-0.00015713804
230	0x3b5d82be	0.0033799852
231	0xbb56a1e8	-0.0032750312
232	0x3af9f5a2	0.0019070397
233	0xba888f49	-0.0010418679
234	0xba95d2f8	-0.0011430671
235	0xbb07c621	-0.002071746
236	0x3ac87bb7	0.0015295659
237	0xb8d6f344	-0.00010249627
238	0xbafee4ec	-0.0019446886
239	0x3b3eb4f6	0.002909956
240	0x3a5cdc9c	0.00084252073
241	0x3a8b40bd	0.0010624152
242	0xbb5688d9	-0.0032735376
243	0x3b726326	0.0036985367
244	0xbb53520e	-0.0032244953
245	0xb97a11d5	-0.00023848501
246	0xbb14d48a	-0.002270969
247	0x3b82d625	0.003992813
248	0xbb17dc51	-0.002317209
249	0x3aa898c8	0.0012862915
250	0xbe25f318	-0.16206014
251	0xba022896	-0.0004965154
252	0x3d91fc72	0.07128228
253	0x3e01bfc4	0.12670809
254	0xbdd83763	-0.10557439
255	0x3dac4d33	0.08413162

conv_first.conv_squeeze.weight f4 [16, 256, 1, 1]
0	0xb910e716	-0.00013818996
1	0xb9ad7c30	-0.00033089658
2	0x38cafb77	9.6789496e-05
3	0x39844db6	0.000252349
4	0x3652d6bf	3.1417437e-06
5	0x39697628	0.00022264628
6	0x3829492f	4.0360897e-05
7	0xb93713fd	-0.00017459686
8	0xbcb23aba	-0.021756519
9	0xb909db14	-0.00013146951
10	0x3eb7b42e	0.35879654
11	0xb9049c4c	-0.00012646726
12	0x39894bb7	0.00026187088
13	0xb7c81f19	-2.3856339e-05
14	0x383629ad	4.3430995e-05
15	0xb94a5402	-0.00019295517
16	0xb95ecf09	-0.00021248696
17	0xba7b8050	-0.000959401
18	0xb913703a	-0.0001406082
19	0xb7ebc673	-2.8106593e-05
20	0xb7d55e0c	-2.5435373e-05
21	0xba557a37	-0.00081435166
22	0x389ed54d	7.5737575e-05
23	0xb954ee84	-0.0002030675
24	0x3a3e0951	0.0007249313
25	0xb92ccf8c	-0.00016480515
26	0x3a91e015	0.0011129404
27	0xb9835815	-0.00025051893
28	0x39422d30	0.00018518115
29	0xbe5aa5e0	-0.21352339
30	0xbcdd0569	-0.026980119
31	0xb88b83e9	-6.652607e-05
32	0xb8f9e19a	-0.00011915267
33	0x38c0d1f8	9.194383e-05
34	0x37ae0202	2.0743351e-05
35	0x38ee6c01	0.00011368842
36	0x384846a7	4.7749516e-05
37	0xb6e38b54	-6.781347e-06
38	0x3d8adf84	0.067809135
39	0xb8620046	-5.3882854e-05
40	0x38162c14	3.5803838e-05
41	0x38db33d1	0.00010452385
42	0xb979b312	-0.000238132
43	0xbeb9058a	-0.36137038
44	0x37dcf32a	2.6339276e-05
45	0x39f7576c	0.00047176646
46	0xbd4de88d	-0.050270606
47	0xbbe3cbf2	-0.0069518024
48	0xb9891480	-0.0002614595
49	0xb9adc8e5	-0.0003314681
50	0xb911e874	-0.00013914873
51	0xbe0013d8	-0.1250757
52	0x3d98a699	0.07453651
53	0xb8a364a0	-7.7911885e-05
54	0x376131ee	1.342267e-05
55	0x39869692	0.00025670655
56	0x399054d0	0.0002752901
57	0xba05c0fb	-0.00051023037
58	0xb9bea308	-0.00036361092
59	0x38b7480c	8.73954e-05
60	0x3b032093	0.002000843
61	0xb91445c1	-0.00014140365
62	0x3da02582	0.07819654
63	0x35de8684	1.6579438e-06
64	0xb99a612a	-0.00029445562
65	0xbe2b7f8e	-0.16747877
66	0xb90b0028	-0.00013256131
67	0x38cced29	9.7716525e-05
68	0xb9d6b81a	-0.00040954427
69	0xb99bab69	-0.00029691614
70	0xb9d9e0f1	-0.0004155706
71	0x3980042b	0.00024417168
72	0xbb0fa2f3	-0.0021917194
73	0x38049283	3.1607702e-05
74	0x399a0455	0.00029376397
75	0xb92c4715	-0.00016429678
76	0x3930fdbb	0.0001687919
77	0xb894252e	-7.064115e-05
78	0xb9d43569	-0.00040475585
79	0x379835b3	1.8144818e-05
80	0xb8b526ed	-8.638003e-05
81	0x3963c000	0.00021719933
82	0x39107cf7	0.00013779463
83	0x3924f13f	0.0001573013
84	0x39b0572f	0.00033634293
85	0x3abdf43f	0.0014492347
86	0xb93fe6ae	-0.00018301114
87	0xb9110520	-0.00013830187
88	0xb8866ee6	-6.410274e-05
89	0xb92571dc	-0.00015778042
90	0x38c908d0	9.586068e-05
91	0xb8c968ce	-9.603948e-05
92	0xbd2f7b90	-0.042842448
93	0x39f7c1e1	0.00047255962
94	0xb9bf35e6	-0.00036470516
95	0xb85fc61a	-5.335184e-05
96	0xbe0db92f	-0.13840173
97	0x3939cf3c	0.00017720176
98	0xb9b6e534	-0.00034884515
99	0x3a1aa90b	0.0005899823
100	0x3b0f43be	0.0021860446
101	0xb9ab60d1	-0.00032687795
102	0xb8ef5dbd	-0.00011413868
103	0xba2b4692	-0.0006533648
104	0xb9841b21	-0.00025197215
105	0x39e7a3c4	0.00044181768
106	0xb9ffa503	-0.00048760333
107	0x397d956d	0.00024183626
108	0xb9558170	-0.00020361482
109	0x392b4970	0.00016335188
110	0x3d7ef55b	0.062245708
111	0xba061bd1	-0.00051158393
112	0x3917cb10	0.00014476129
113	0x3a40a1a5	0.00073483057
114	0x3d9df1ea	0.07712157
115	0x3805378e	3.176141e-05
116	0x3827c609	4.0000337e-05
117	0x391ffe8b	0.00015258246
118	0x3d9467e3	0.07246377
119	0xba0eed27	-0.00054522086
120	0xb9c2331f	-0.00037040652
121	0x391fda06	0.00015244642
122	0x390db2dd	0.0001351344
123	0x3d1d9072	0.038467832
124	0x3b4bac6a	0.0031078109
125	0x395636db	0.00020429066
126	0x39808f07	0.00024520626
127	0x3d95e41e	0.073189005
128	0xb8b1c7bf	-8.477223e-05
129	0xbc846e0c	-0.016165756
130	0x3a176047	0.00057745393
131	0x3a38451e	0.0007029342
132	0x3a261fb6	0.0006337123
133	0xb7ec4625	-2.8166056e-05
134	0xb992a428	-0.00027969596
135	0x396b2a1b	0.00022427032
136	0x39bed0ca	0.00036395184
137	0xbd7ac579	-0.06122348
138	0xba134b5a	-0.0005618833
139	0xbdcb3dcf	-0.099238984
140	0xb928afe5	-0.00016087254
141	0xb68224c5	-3.8785824e-06
142	0xb9f0ba5c	-0.00045915216
143	0x38fc2e12	0.00012024878
144	0x39b764be	0.0003497954
145	0x374998f3	1.2016145e-05
146	0x37c5f922	2.3600242e-05
147	0x3a8408e4	0.001007345
148	0xb9defbe9	-0.00042530827
149	0x392bb794	0.00016376219
150	0x394929f5	0.00019184484
151	0x3991a9e9	0.00027783148
152	0x3b42a362	0.0029699435
153	0xb917bca8	-0.00014470762
154	0x3c75d7ff	0.015005111
155	0x393bf04d	0.00017923229
156	0x39b9d008	0.00035440945
157	0xb9a36837	-0.0003116743
158	0x3b6b5b00	0.0035912395
159	0x39a88b54	0.00032147265
160	0xbd0ef7d7	-0.034904327
161	0x3902846c	0.00012447097
162	0x3ca59698	0.02021341
163	0xb9808473	-0.00024512745
164	0xbe78c184	-0.2429257
165	0x392ba75b	0.00016370176
166	0xb8d655b5	-0.000102202794
167	0x3b76150a	0.0037549161
168	0xbb227c46	-0.002479331
169	0xb98d7633	-0.0002698168
170	0xbbd3cfa1	-0.0064639603
171	0xb91b38cb	-0.00014803109
172	0x3b209057	0.0024500096
173	0xb914ef43	-0.00014203512
174	0x3e276f6a	0.16351095
175	0xb9931c4b	-0.00028059105
176	0xb8633b58	-5.4176286e-05
177	0xbb9ddd6c	-0.0048176553
178	0x39ec4cd3	0.00045070666
179	0xb96d23af	-0.00022615374
180	0xba369af2	-0.00069658377
181	0xb920421b	-0.00015283415
182	0xb982b535	-0.00024930542
183	0xbe959ba9	-0.29220322
184	0x39eb934c	0.00044932438
185	0xb92cc002	-0.00016474727
186	0xb871cdba	-5.7650475e-05
187	0x3846b99b	4.7379737e-05
188	0xb8247f58	-3.9219245e-05
189	0x397c1d16	0.00024043428
190	0x39b7388b	0.00034946608
191	0xb9b949fa	-0.00035341067
192	0xb7be3063	-2.2672297e-05
193	0x380db283	3.378327e-05
194	0xb83c8fe1	-4.495669e-05
195	0x39289715	0.00016078011
196	0xbb01d76b	-0.0019812237
197	0x3999c581	0.00029329586
198	0xbdccf2f1	-0.10007275
199	0xbb867c06	-0.00410414
200	0xb8994a5d	-7.30946e-05
201	0x38cdab8b	9.807114e-05
202	0xb81b4a16	-3.7023878e-05
203	0xb8b968c0	-8.8409986e-05
204	0xb92cea16	-0.00016490402
205	0x37a36354	1.9477367e-05
206	0x38c2f544	9.296325e-05
207	0xb8f61aeb	-0.00011735208
208	0x3a72ff01	0.0009269566
209	0xb94c2bb0	-0.00019471231
210	0xba00324e	-0.00048903085
211	0xb89bce16	-7.4293624e-05
212	0xb7c06738	-2.2936249e-05
213	0x3792142c	1.741395e-05
214	0xb83af2c2	-4.457194e-05
215	0xb8711f17	-5.7487832e-05
216	0x3889bfd1	6.568398e-05
217	0xb8f5bcfa	-0.0001171771
218	0xb9bfe489	-0.0003660063
219	0x3b089763	0.0020842187
220	0xbd21cbcc	-0.039500996
221	0xb9f9b741	-0.00047629516
222	0x38e0c763	0.00010718291
223	0x39279744	0.00015982712
224	0xbc014560	-0.007890075
225	0x386f1268	5.6999183e-05
226	0x38ab8963	8.179506e-05
227	0xb8ac5cd7	-8.218892e-05
228	0xb8bf8596	-9.132472e-05
229	0xb992e4ca	-0.0002801775
230	0xbe6c77ba	-0.23092547
231	0x35e6513a	1.7159975e-06
232	0x391f4588	0.00015189324
233	0xbdf0d2ab	-0.11758932
234	0xbe408d30	-0.18803859
235	0x38c8ff73	9.584324e-05
236	0x3dfff08d	0.12497053
237	0xb975f85f	-0.00023457546
238	0x3a06a45b	0.0005136185
239	0xb902c4d3	-0.00012471089
240	0xb90e1967	-0.00013551638
241	0xb9ac2204	-0.0003283174
242	0x379d48ac	1.8749699e-05
243	0x3728eed7	1.006919e-05
244	0xb9a9ccec	-0.0003238687
245	0xb8ec83a7	-0.00011277879
246	0x38e7959c	0.00011042805
247	0xb90ab08f	-0.00013226479
248	0x39087a3b	0.00013015505
249	0xbb6687bd	-0.003517612
250	0xbe1076f7	-0.14107881
251	0xb74e30ee	-1.2289949e-05
252	0xb8932089	-7.0155664e-05
253	0x392c4717	0.00016429681
254	0xb922ce91	-0.00015526476
255	0x3a71e8b7	0.00092280976

conv_first.conv_squeeze.bias f4 [16]
0	0xbaf9eaa0	-0.0019067116
1	0x3b5bf8a8	0.0033564959
2	0xbab60ad8	-0.001388873
3	0xbac38013	-0.0014915488
4	0xbdb418b6	-0.08793776
5	0x3ae0f6e0	0.0017163418
6	0x3bedd88e	0.0072584813
7	0xba80a6b5	-0.0009815308
8	0x3a8a2f4c	0.001054266
9	0xb9f28a78	-0.00046261004
10	0x39361fa5	0.00017368661
11	0xbddc1c2b	-0.1074756
12	0xbad279ed	-0.0016058065
13	0xba4f21d3	-0.00079014635
14	0x3940fa4a	0.00018403787
15	0xbdb69251	-0.089146264

residual_block.0.conv_expand.weight f4 [256, 16, 3, 3]
0	0xbbf404b8	-0.0074468516
1	0xbd7af93f	-0.061272856
2	0xbd09e80d	-0.033668566
3	0xbc2da713	-0.010598916
4	0x3b0afd8e	0.002120826
5	0x3ce817e6	0.028331708
6	0xbb1cb78a	-0.0023913109
7	0x3a6778b9	0.000882994
8	0x3c84374b	0.016139647
9	0xbc81bbec	-0.015836678
10	0x3c75d40b	0.015004168
11	0x3d831b92	0.06401743
12	0xbc7e6b8c	-0.015528571
13	0x3d2cb573	0.04216523
14	0xbd088ce0	-0.033337474
15	0x3d689987	0.05678704
16	0x3ca59b12	0.020215545
17	0xbd4b548d	-0.04964118
18	0xbd7679f4	-0.060174897
19	0x3d58882b	0.052864235
20	0x3c6ac081	0.014328123
21	0x3daf6f8e	0.08566199
22	0x3bec9b5d	0.007220669
23	0xbc9efe30	-0.019408315
24	0xbc3428bc	-0.01099604
25	0x3c2cd2e3	0.010548326
26	0x3c518ae4	0.012789462
27	0xbbb03f46	-0.0053786365
28	0x3c487585	0.01223505
29	0xbc85cffd	-0.016334528
30	0x3d9ae17d	0.0756254
31	0x3dc9db46	0.09856276
32	0xbd4aa224	-0.049471036
33	0xbd2368b5	-0.03989478
34	0x3d106984	0.035256878
35	0x3a262912	0.00063385174
36	0x3d60d748	0.05489281
37	0x3dabe917	0.08394068
38	0xbd34e1bf	-0.0441606
39	0x3d86a556	0.06574504
40	0xbd1178ad	-0.035515476
41	0xbc3c7af8	-0.011503927
42	0x3c0f7f8d	0.008758438
43	0xbd65e36b	-0.056125086
44	0xbd1d3762	-0.038382895
45	0x3d51328f	0.051073607
46	0xbd3ce1fb	-0.04611395
47	0xbc96bbb1	-0.018400045
48	0xbd9a2c2b	-0.075279556
49	0xbc7bc223	-0.01536611
50	0x3c4b3864	0.012403581
51	0xb904c024	-0.00012660079
52	0xbcc95b8e	-0.02457979
53	0xbab1e9be	-0.0013573689
54	0xbd029123	-0.031876694
55	0x3cd0b8b2	0.025478695
56	0x3d350961	0.044198398
57	0xbd612abd	-0.0549724
58	0x3da76547	0.08173614
59	0xbd1d41ae	-0.038392715
60	0x3d03a231	0.0321371
61	0xbd68188b	-0.05666403
62	0xbd7812d0	-0.060564816
63	0x3c5e32f9	0.0135619575
64	0x3db7dae2	0.089772955
65	0x3e07db81	0.13267328
66	0xbcd03520	-0.025415957
67	0xbdd7cffd	-0.105377175
68	0xbe1aa75a	-0.15102902
69	0x3c8c57a0	0.017131627
70	0xbc913a61	-0.017728033
71	0xbcd57d1f	-0.026060639
72	0x3bac6ff8	0.005262371
73	0xbc6413b9	-0.013920718
74	0x3c27c380	0.010239482
75	0xbd4b6cc5	-0.049664278
76	0x3db563cf	0.088569276
77	0xbca4eefc	-0.020133488
78	0x3ca08d1e	0.01959854
79	0xbd308c8b	-0.043102782
80	0xbd03e013	-0.032196116
81	0xbd0e7bdf	-0.0347861
82	0x3d37d2fd	0.04487895
83	0x3cd031bd	0.025414342
84	0xbdb5075c	-0.08839294
85	0xbdd302a9	-0.10303242
86	0xbb8a4e95	-0.0042207935
87	0x3d353bd5	0.044246513
88	0x3db99951	0.09062446
89	0x3c919a7a	0.017773855
90	0x3bd96a80	0.0066350102
91	0x3c3b62d7	0.0114371395
92	0xbcc2e5a2	-0.023791138
93	0x3c980f04	0.018561848
94	0x3ddbbc5c	0.10729286
95	0x3d5a74d9	0.05333409
96	0x3b9eeaa9	0.004849751
97	0x3bbc2851	0.005742111
98	0xbd533ac8	-0.05156973
99	0x3cbbf8f6	0.022945862
100	0x3d9826c7	0.07429271
101	0x3d0bbd2b	0.03411595
102	0x3d92c066	0.07165603
103	0x3dd2c166	0.10290794
104	0xbe02b4d1	-0.12764288
105	0x3d9dadcb	0.07699164
106	0xbdf6b75a	-0.1204669
107	0xbd02602e	-0.031830005
108	0xbcf89327	-0.030343605
109	0xbe456497	-0.19276653
110	0x3d932117	0.07184046
111	0x3cb1f929	0.021725254
112	0x3aa090b9	0.0012250162
113	0x3ceabcc7	0.02865447
114	0x3c3d6468	0.011559583
115	0x3c90ba67	0.017667009
116	0x3b0a89e2	0.0021139313
117	0x3b11de5b	0.0022257778
118	0xbc3c0ac1	-0.011477173
119	0x3c8a0b43	0.016851073
120	0x3cfd2282	0.030900244
121	0x3c8f5fe2	0.017501775
122	0x3c2efa62	0.010679813
123	0xbb8d1480	-0.0043054223
124	0xbcca06da	-0.02466147
125	0xbd19e1e7	-0.037568953
126	0x3d8af4f9	0.06785006
127	0xbd83eccf	-0.06441652
128	0x3ca6cd48	0.020361558
129	0xbdffb014	-0.12484756
130	0x3ddb4eb8	0.10708374
131	0x3d9559be	0.072925076
132	0x3c293bf8	0.010329239
133	0xbd6e1380	-0.058124065
134	0x3c0d7beb	0.008635501
135	0xbcb3087f	-0.021854637
136	0xbda7005a	-0.08154364
137	0x3d3ceb83	0.04612304
138	0xbce41687	-0.027842773
139	0xbd370a8b	-0.04468779
140	0xbce0e08b	-0.02745082
141	0xbd73fcda	-0.05956731
142	0x3d03a8b9	0.03214333
143	0x3d924b98	0.071433246
144	0x3b99986d	0.00468736
145	0x3d53dcb0	0.051724136
146	0x3d224a08	0.039621383
147	0x3caca8e2	0.021076623
148	0xbd50f503	-0.05101491
149	0xbd4d409f	-0.050110456
150	0xbaf8fca2	-0.0018996189
151	0xbbe1fae7	-0.006896365
152	0x3bec75c1	0.007216186
153	0xbdd0c254	-0.10193315
154	0xbd0c8c0b	-0.034313243
155	0x3d67fcb9	0.0566375
156	0xbc932078	-0.017959818
157	0x3d3054a4	0.04304947
158	0x3d908ccd	0.070581056
159	0xbca27391	-0.019830497
160	0xbd97d364	-0.074133664
161	0xbb027fff	-0.0019912717
162	0x3d500c03	0.050792705
163	0xbd04e7f0	-0.032447755
164	0xba8fd227	-0.0010972664
165	0xbdd4f21d	-0.10397742
166	0x3d32927a	0.043596722
167	0x3c9d0932	0.019169424
168	0xbcceca96	-0.025243085
169	0xbd89c931	-0.06727827
170	0xbcf27b14	-0.029599704
171	0x3c2f0a6f	0.01068364
172	0x3c2e4d1a	0.0106385
173	0xbc48254b	-0.012215923
174	0xbdd500c4	-0.10400537
175	0xbdd71bfe	-0.10503386
176	0xbce73458	-0.028223202
177	0xbc97ff8b	-0.01855447
178	0x3d0ff9c6	0.035150312
179	0x3c678832	0.014131593
180	0xbd74f359	-0.059802387
181	0xbd8b4773	-0.06800737
182	0xbd3dccf5	-0.04633804
183	0x3d1e73e1	0.03868473
184	0xbc6aa16e	-0.014320714
185	0xbda58f64	-0.0808399
186	0x3d8a909f	0.067658655
187	0x3a8985ba	0.0010492124
188	0xbd9af93d	-0.0756707
189	0xbcc0a242	-0.02351487
190	0x3d0a939a	0.03383217
191	0x3c2ce0b4	0.01055162
192	0x3dd20d9f	0.10256504
193	0xbcd01cfa	-0.025404442
194	0xbce728d3	-0.028217709
195	0x3c550ba5	0.013003265
196	0x3d41413b	0.04718135
197	0x3c88b604	0.016688354
198	0x3de1ef54	0.11031976
199	0x3bc2391f	0.0059272195
200	0xbd81b994	-0.06334224
201	0xbd915083	-0.070954345
202	0xbd3538a0	-0.044243455
203	0x3d5ac5f1	0.053411428
204	0xbbd03918	-0.0063544624
205	0x3e2d9a4d	0.16953392
206	0xbd6bcac6	-0.057566427
207	0x3aa009a2	0.0012209902
208	0xbd689c81	-0.05678988
209	0x3d80360d	0.06260309
210	0xb9bd8dd9	-0.00036154574
211	0x3e2bc062	0.16772607
212	0xbcfa7fe9	-0.03057857
213	0xbab80702	-0.0014040174
214	0xbc2c1be0	-0.010504693
215	0x3c03788d	0.008024347
216	0xba212af1	-0.00061480614
217	0x3b1d799e	0.0024028788
218	0xbaf88983	-0.001896188
219	0x3c1ce74c	0.00957663
220	0xbd9b73ae	-0.075904235
221	0x3d9748cd	0.073869325
222	0x3ce50fbf	0.02796161
223	0x3dfdc13d	0.12390373
224	0x3d0317e2	0.0320052
225	0xbb83a618	-0.0040176027
226	0xbd717064	-0.058945075
227	0x3d500804	0.050788894
228	0x3e41430e	0.18873236
229	0x3e4525b8	0.1925267
230	0xbd47e038	-0.048797816
231	0xbe06693a	-0.13126078
232	0xbe10c021	-0.14135791
233	0xbd10a376	-0.03531214
234	0xb9f35859	-0.00046414396
235	0x3caca453	0.02107445
236	0xbc12975b	-0.008947219
237	0xbc924eb9	-0.017859804
238	0xbe115a56	-0.14194617
239	0xbd0b4bf7	-0.034007993
240	0xbcea19d2	-0.028576765
241	0x3db10495	0.08643452
242	0x3d9ce63c	0.07661101
243	0x3d1b335c	0.037890777
244	0x3cb6fb77	0.022336705
245	0x3dc8649f	0.09784817
246	0xbd6e6a9a	-0.058207132
247	0xbb30ae57	-0.0026959383
248	0x3e1177f0	0.14205909
249	0x3dfec38c	0.12439641
250	0x3d567fac	0.05236785
251	0x3d41e436	0.04733678
252	0x3dcd6d25	0.10030583
253	0x3e32ad80	0.17448997
254	0xbd562836	-0.052284442
255	0xbcc20da4	-0.023688145

residual_block.0.conv_squeeze.weight f4 [16, 256, 1, 1]
0	0xbc4cfb39	-0.012511068
1	0x3c2b97b1	0.010473178
2	0xbc2dc7f5	-0.0106067555
3	0xbe275cc1	-0.16343977
4	0x3bc831a8	0.006109435
5	0xbba258fe	-0.0049544564
6	0xbc37f68b	-0.011228214
7	0x3cfcf691	0.03087929
8	0xba5858d1	-0.0008252981
9	0xbbb2239a	-0.005436373
10	0xbc571080	-0.0131264925
11	0x3b4e515b	0.0031481597
12	0x3c57c9d1	0.013170675
13	0xbc8a70c2	-0.01689947
14	0xba40e0f5	-0.000735774
15	0xbc3d20a0	-0.011543423
16	0x3c029b19	0.0079715485
17	0x3cb155a3	0.02164728
18	0xbc5fa8b8	-0.0136510655
19	0xbb6fd168	-0.0036593322
20	0xbba4e488	-0.005032126
21	0xbc2aaa00	-0.010416508
22	0xbe158435	-0.14601214
23	0xbc36c0ed	-0.0111543955
24	0xbc8c6aad	-0.01714071
25	0x3d0b8a11	0.034067217
26	0xbd24e7c3	-0.040260088
27	0x38306c20	4.206237e-05
28	0x3cb98924	0.022648402
29	0x3c28ae78	0.010295503
30	0x3b17e351	0.0023176263
31	0x3bd234c3	0.006414981
32	0x3d8d881f	0.06910729
33	0xbb24ed68	-0.002516592
34	0x3ce5298e	0.027973916
35	0xbc9b4293	-0.018952643
36	0xbc1b6ef2	-0.009486901
37	0x3d3513a9	0.044208203
38	0x3bcca01b	0.006244672
39	0x3bdd4ee0	0.0067537874
40	0x3d848a17	0.06471651
41	0x3c79ac14	0.0152387805
42	0x3a99219d	0.0011682991
43	0xbaf4983b	-0.0018661091
44	0x3c0b3402	0.008496286
45	0x3bc6e88b	0.0060702018
46	0x3d3f6884	0.046730533
47	0xbb665f86	-0.0035152151
48	0x3e506f5e	0.20354983
49	0x3e3691a8	0.17829001
50	0x3b1ba279	0.0023747964
51	0xbb210f89	-0.002457591
52	0xbc884429	-0.016634064
53	0xbb758b1d	-0.0037466951
54	0xbc3a4085	-0.011367922
55	0x3d7e4d16	0.062085234
56	0xbc48ecd0	-0.012263492
57	0xbb829b92	-0.0039858306
58	0xbce14bbc	-0.027501933
59	0x3b9f7fb1	0.004867517
60	0x3d1ce993	0.03830869
61	0xbb9b3f96	-0.0047378046
62	0xbcdc316a	-0.026879031
63	0x3c028f0e	0.007968677
64	0x3d3d551e	0.046223752
65	0xb9068f09	-0.0001283252
66	0xbc282774	-0.010263313
67	0x3c1feb42	0.00976068
68	0x3b35473c	0.0027660867
69	0x3c98a0c3	0.018631345
70	0x3d9df04e	0.0771185
71	0xbc87cca5	-0.016577074
72	0x3c3f48e1	0.0116750905
73	0xbcbce91a	-0.02306037
74	0x3c964d01	0.018347265
75	0x3c86108f	0.016365318
76	0x3b8e14da	0.004335982
77	0xbca55880	-0.020183802
78	0x3ce91620	0.028452933
79	0x3d8b7a90	0.06810486
80	0x3b94d0e6	0.004541504
81	0x3caed99c	0.021343999
82	0x3cbb4b92	0.022863183
83	0xbc8461e8	-0.016159967
84	0x3c3bd14c	0.0114634745
85	0xbc56bc91	-0.013106481
86	0xbd04658d	-0.03232341
87	0x3c34b1de	0.011028735
88	0xbba381d6	-0.004989843
89	0x3b99d05f	0.004694029
90	0xbcd493ec	-0.02594944
91	0xbc2ac676	-0.010423293
92	0xbcf1c906	-0.0295148
93	0x3bd5d81b	0.006526006
94	0x39925364	0.0002790942
95	0x3cde869b	0.027163794
96	0xba0704ff	-0.0005150586
97	0x3cbb7f8c	0.022887968
98	0x3b8ab433	0.004232907
99	0xbd0e4efd	-0.034743298
100	0x3d0a0c30	0.03370303
101	0xbde4f736	-0.11179964
102	0xbcd4dd61	-0.025984468
103	0xbc43c8dd	-0.011949745
104	0xbcceb19b	-0.025231173
105	0xb9fe44de	-0.00048497965
106	0xbb8e89ec	-0.0043499377
107	0x3c1920b4	0.009346176
108	0xba9a8a1c	-0.0011790427
109	0xbde9a40a	-0.11408241
110	0x39e64950	0.0004392364
111	0x3c3b6d28	0.011439599
112	0xbe41c601	-0.18923189
113	0x3c0e97a7	0.008703149
114	0x3b904ebf	0.0044039185
115	0xbb69b023	-0.0035657964
116	0x3d2a1884	0.041527286
117	0x3d52d557	0.051472988
118	0x3c4938f0	0.012281641
119	0xbd451002	-0.04811097
120	0x3b0e6102	0.0021725302
121	0xbb27040e	-0.0025484595
122	0xbc9e2cd8	-0.019308493
123	0xbb539ff0	-0.0032291375
124	0x3c8767f7	0.016529066
125	0xbb4ab212	-0.0030928892
126	0xbc8d813c	-0.017273538
127	0x3cccebce	0.025014784
128	0x3c020d1e	0.007937698
129	0xbc13e637	-0.009027055
130	0x3bf073f3	0.007338041
131	0x3c3baef8	0.01145529
132	0xbca52e18	-0.02016358
133	0x3b6afdf8	0.0035856944
134	0xbd969c7d	-0.073540665
135	0xbc4e56bc	-0.012593921
136	0xbced7ce7	-0.028990222
137	0x3bac2c40	0.0052542984
138	0x3ca9c38c	0.020723127
139	0x3bca7450	0.0061784163
140	0xbb689aeb	-0.003549273
141	0x3c14fd93	0.00909366
142	0x39c9edb7	0.0003851482
143	0xbc24c505	-0.010056739
144	0x3a8b5942	0.0010631459
145	0x3c587006	0.013210302
146	0xbca625eb	-0.020281753
147	0xbb514be4	-0.0031936103
148	0x3e056fb9	0.130309
149	0x3b0b0491	0.0021212439
150	0xbcd8d6b1	-0.02646956
151	0xbb64f0e4	-0.003493362
152	0x3b39bd5e	0.0028341631
153	0xbbb4f767	-0.0055226567
154	0xbbfdafc5	-0.0077419006
155	0x3da4a041	0.080383785
156	0xbc843bae	-0.016141739
157	0x3c018126	0.007904327
158	0x3c91768d	0.017756725
159	0x39d2fe75	0.00040243907
160	0xba75162c	-0.0009349312
161	0xb9282c07	-0.0001603813
162	0x3d3c2065	0.04592933
163	0xbc82ebc6	-0.015981566
164	0x3b72a494	0.0037024366
165	0xba7ead07	-0.0009715114
166	0x3c00d93b	0.007864292
167	0xbb36708d	-0.0027838082
168	0xbc286ac4	-0.010279361
169	0xbb354c3d	-0.002766385
170	0xbc2839d4	-0.010267694
171	0x3bc82bd8	0.006108742
172	0x3a63669a	0.00086746516
173	0xbc1cc14d	-0.009567571
174	0xbc003215	-0.0078244405
175	0xbb7e78ea	-0.0038829395
176	0xbcc7bd1c	-0.024382167
177	0x3d3d372a	0.046195187
178	0xbca0a21e	-0.019608553
179	0x3c16f9d9	0.009214842
180	0x3b1eef43	0.0024251498
181	0x3c1c0084	0.009521607
182	0xbcd9f906	-0.026608001
183	0x3cb71b1c	0.022351794
184	0x3b9e2d0e	0.0048271483
185	0xbc384404	-0.011246685
186	0x3dd11683	0.10209372
187	0x3ca47123	0.020073479
188	0xbc389e16	-0.011268159
189	0x3b9d3192	0.004797169
190	0xb95da7a0	-0.00021138648
191	0xbd784326	-0.060610913
192	0x3bc18582	0.005905808
193	0x3b890fa6	0.0041827736
194	0xbe21535f	-0.1575446
195	0x3bcb3b6d	0.0062021525
196	0x3ba86a74	0.0051396433
197	0xbdd121cd	-0.10211525
198	0x3bbe61f8	0.0058100186
199	0xbbfeec55	-0.007779638
200	0x3b606a88	0.0034243185
201	0xbcb50e9a	-0.02210169
202	0x3b9f30c4	0.0048581082
203	0x3c80d3af	0.015725939
204	0x3b435470	0.0029804967
205	0x3d8ffefe	0.07031058
206	0x3c85317c	0.016258948
207	0xbc1b3ee9	-0.009475448
208	0xbca8fd2a	-0.02062853
209	0xbe95791f	-0.2919397
210	0x3b6507d7	0.00349473
211	0x3bb9006c	0.0056458022
212	0xbd08ea58	-0.033426613
213	0x3bd142ae	0.0063861227
214	0xbe253313	-0.16132765
215	0x3b07665e	0.002066038
216	0x3d03fc43	0.032222997
217	0x3d01a42c	0.031650707
218	0x3c532271	0.012886629
219	0xbc878fd2	-0.016548071
220	0x3b939fff	0.004505157
221	0xbb91ab52	-0.004445472
222	0x3c10a1ec	0.008827668
223	0xbb185359	-0.0023243038
224	0xbb9738a2	-0.0046149055
225	0x3b73834d	0.0037157119
226	0x3bd9a6a4	0.0066421796
227	0x3c9b2eed	0.018943274
228	0x3caf1c4d	0.0213758
229	0xbb6c7fca	-0.003608691
230	0xbbd16b25	-0.0063909465
231	0xbcadeea1	-0.021231951
232	0x3aea27d2	0.001786465
233	0x3c23bc52	0.0099936295
234	0x3c2627e7	0.010141349
235	0x3c0fe8a3	0.008783492
236	0x3cc8897d	0.024479622
237	0xbc2d5b25	-0.010580813
238	0x3cab5c96	0.020918172
239	0xbc6bac0c	-0.014384281
240	0x3abce5e6	0.0014411777
241	0x3b21b3df	0.0024673862
242	0xbca182d4	-0.019715704
243	0xbe7beea6	-0.24602756
244	0xbd4bb3c9	-0.049732003
245	0xbb81dd0a	-0.0039631175
246	0xbcd2cd82	-0.02573276
247	0x3c10d25e	0.008839218
248	0x3bdfbf6b	0.0068282387
249	0x3b0eff7e	0.0021819766
250	0xbc6b6076	-0.01436626
251	0xbbde485b	-0.006783528
252	0xbaef271f	-0.0018245912
253	0x3c1cdf79	0.009574764
254	0xbc119214	-0.008884925
255	0xbbd6d623	-0.006556289

residual_block.0.conv_squeeze.bias f4 [16]
0	0x3ccf705d	0.025322134
1	0x3a5614ec	0.000816657
2	0x3c6ef027	0.014583624
3	0x3d23c639	0.03998396
4	0x3ca22d3b	0.019796958
5	0x3d8cb8e0	0.068711996
6	0x3d5b8226	0.053590916
7	0x3d14c8df	0.036324378
8	0x3c35942e	0.011082692
9	0xbf4216ac	-0.75815845
10	0xba6b2654	-0.000897025
11	0x3c451476	0.012028804
12	0xb9bf9755	-0.0003654311
13	0x3d94e932	0.07271041
14	0x3ca251e3	0.019814437
15	0x3d803e38	0.06261867

residual_block.1.conv_expand.weight f4 [256, 16, 3, 3]
0	0xbbd5bf33	-0.006523037
1	0xbb82e4fb	-0.0039945818
2	0x3ad3e1ae	0.001616528
3	0x3b10401c	0.0022010868
4	0xb9e262cd	-0.0004317969
5	0x3a96769f	0.0011479444
6	0x38e41560	0.000108758686
7	0x3c3b4c36	0.011431744
8	0xbc2765fc	-0.010217186
9	0x3af83f9f	0.0018939859
10	0x3bd2d4b7	0.006434049
11	0xbb7228d8	-0.0036950614
12	0x3be92a72	0.0071156556
13	0x3c207fc5	0.009796088
14	0xbc1d8282	-0.009613635
15	0x3b01b3fc	0.0019791117
16	0x394eecb5	0.00019733871
17	0x3a59924d	0.00082996936
18	0x3b03fe7b	0.0020140696
19	0xbb946849	-0.0045290333
20	0x3ae57adc	0.0017507928
21	0x39bc1606	0.00035874563
22	0x38a718f9	7.967832e-05
23	0x3a379076	0.00070024224
24	0x388e6174	6.78924e-05
25	0x3ab901c3	0.0014114905
26	0x3aa3376d	0.0012452431
27	0x3afba153	0.0019197859
28	0x3a11b37c	0.00055580563
29	0xbaa36f6c	-0.0012469119
30	0xbacc2487	-0.0015574851
31	0xbbc7d278	-0.006098088
32	0x3b243876	0.0025058067
33	0xbadab2f8	-0.0016685417
34	0x3b34e29c	0.002760089
35	0xbbae57f2	-0.0053205425
36	0xbbcc0728	-0.006226439
37	0xba9ce93f	-0.0011971368
38	0x3bf87115	0.00758184
39	0x3961dabc	0.00021539157
40	0x38f203ae	0.000115401446
41	0xbc1550e3	-0.009113523
42	0xba3d8373	-0.00072293653
43	0x3957f82a	0.00020596446
44	0xbb8baf9b	-0.004262877
45	0x3addbe8a	0.0016917747
46	0x3b82ad77	0.003987964
47	0xbbeba223	-0.007190959
48	0xbb00dbfc	-0.001966237
49	0x3a8d4a9d	0.0010779683
50	0x3a19187d	0.0005840136
51	0x3c1282c8	0.0089423135
52	0xbc4513f9	-0.012028688
53	0x3bbdba9c	0.005790068
54	0x3c2f11dd	0.010685411
55	0xbab6e0cf	-0.0013952496
56	0xbb6140e2	-0.0034370949
57	0xb9b59d33	-0.00034640133
58	0xbbdf48ab	-0.0068140826
59	0xbad9d1fe	-0.0016618369
60	0xbc010825	-0.007875477
61	0x3bd1dda1	0.006404594
62	0x3bcb4b90	0.006204076
63	0xbc1d4012	-0.009597795
64	0xbb2db681	-0.0026506486
65	0x3c3452fc	0.011006113
66	0x3becc339	0.007225421
67	0x3bd3944d	0.006456888
68	0xbc1de786	-0.009637719
69	0x3b20910e	0.0024500522
70	0x3c14c156	0.009079298
71	0xbbd5c297	-0.006523441
72	0xbb1ab81b	-0.002360827
73	0x3b24f47e	0.0025170143
74	0x39c99606	0.00038449484
75	0x3b26b3a5	0.0025436666
76	0x3b676b94	0.0035311924
77	0xbaf6725a	-0.001880239
78	0x3c6d3321	0.014477522
79	0xbc472f0c	-0.012157213
80	0x3aeee172	0.0018225147
81	0x3b162dd8	0.0022915509
82	0xbb2afe48	-0.0026091505
83	0x38e9f02a	0.0001115504
84	0x3aaf2d44	0.0013364931
85	0xbc003e5e	-0.0078273695
86	0x3bee87bc	0.0072793644
87	0xb986beb2	-0.0002570055
88	0xba31e2c4	-0.0006785805
89	0xbb9be623	-0.004757659
90	0x3ae9c761	0.0017835909
91	0x3b71c4e3	0.0036891035
92	0xbb924861	-0.0044641946
93	0xbaa94fd3	-0.0012917466
94	0xbbb949b9	-0.0056545404
95	0x3b14c6aa	0.002270142
96	0xbb41c87c	-0.002956896
97	0xbc07a18a	-0.00827826
98	0x3ba60b5a	0.005067271
99	0x3b37f898	0.0028071757
100	0x3ba7ac72	0.0051169926
101	0xbb3129f2	-0.0027033058
102	0x3b79b307	0.0038101093
103	0xbb412fff	-0.002947807
104	0x3ab7f8d2	0.0014035946
105	0xbac79981	-0.0015228243
106	0xbc9f8007	-0.019470228
107	0x3c5084c0	0.012726963
108	0xba295271	-0.0006459123
109	0x3b1db98a	0.0024066889
110	0xba8784a7	-0.0010339216
111	0x3c3a29c5	0.011362498
112	0x3b9c824f	0.004776276
113	0xbb9506ec	-0.0045479443
114	0xb96c5468	-0.00022538158
115	0xb9d92f42	-0.00041424675
116	0x3a514abd	0.0007983854
117	0x3b91ac10	0.0044455603
118	0xbc2fa3b7	-0.010720185
119	0xbac31c82	-0.0014885815
120	0xbafda5fe	-0.0019351838
121	0x3c320ca1	0.010867269
122	0x3bd5f18d	0.0065290392
123	0xbb5bc120	-0.003353186
124	0x3bc6bc10	0.0060648993
125	0x3b0c18d4	0.0021377103
126	0x395f06ea	0.00021269513
127	0x3bb1592e	0.0054122424
128	0xbb3178fb	-0.0027080167
129	0xbba65ae3	-0.0050767525
130	0x3777bc59	1.47662e-05
131	0x3b7de978	0.0038743895
132	0xbadb3b5f	-0.0016726068
133	0x3b324e1b	0.00272072
134	0xbb5a9c4a	-0.0033357316
135	0xbbac5371	-0.0052589704
136	0x3c1a8c03	0.009432795
137	0xbb706960	-0.0036683902
138	0xbbb06cf8	-0.005384084
139	0x3c0cef06	0.0086019095
140	0xba34d58e	-0.0006898277
141	0xbc104053	-0.008804399
142	0x3a9053b2	0.0011011271
143	0xbad06341	-0.0015898721
144	0x3bf1b929	0.007376809
145	0x3c27d401	0.010243417
146	0x3c22ba4e	0.009932114
147	0xbc2a43dc	-0.0103921555
148	0xbc0e141f	-0.008671789
149	0xbcc359c5	-0.023846516
150	0x3bd9e323	0.0066493913
151	0xbc2ac926	-0.010423934
152	0x3c9246df	0.01785606
153	0xbbc0c5cd	-0.0058829547
154	0xba002333	-0.00048880576
155	0xbb8b35a3	-0.0042483374
156	0xbab26e39	-0.0013613171
157	0xbb2734c0	-0.002551362
158	0x3ab74c94	0.0013984614
159	0x3be8a0c6	0.007099244
160	0xbae3b9e9	-0.0017374131
161	0xba58681a	-0.00082552584
162	0xbb79eabd	-0.00381343
163	0xbc289ae5	-0.010290836
164	0x3bb3b42b	0.005484124
165	0x3b16d40b	0.002301457
166	0x3cdf977e	0.027293917
167	0x3a7baac1	0.00096003345
168	0x3a552521	0.0008130838
169	0xbc44e595	-0.012017627
170	0xbc113a1e	-0.008863954
171	0x3bac7773	0.005263263
172	0xbc3b8e27	-0.011447466
173	0xbc33e032	-0.010978745
174	0xbbc6f818	-0.0060720555
175	0x3a88c42b	0.0010434439
176	0x3abd7d3d	0.001445688
177	0xbbba8848	-0.0056925155
178	0x3bbd09d4	0.005768994
179	0x3b8a1d06	0.0042148856
180	0x3bfe1a83	0.0077546253
181	0xbb105bed	-0.0022027448
182	0xbb1f473e	-0.0024303938
183	0xbb86c9d3	-0.004113415
184	0x3aeb78dd	0.0017965097
185	0x3bf393de	0.0074333986
186	0xbbd21936	-0.006411697
187	0xbb403262	-0.0029326905
188	0x3b820ffd	0.003969191
189	0x3bbf5ea3	0.005840139
190	0xbb304173	-0.002689448
191	0xbaee8c93	-0.0018199853
192	0xba432a5e	-0.0007444973
193	0xbae97d5d	-0.001781385
194	0x3b969161	0.0045949672
195	0xba1792cc	-0.00057820673
196	0x3b76e34c	0.00376721
197	0xbb75f3ed	-0.0037529424
198	0xbb9c502f	-0.004770301
199	0x3b779386	0.003777714
200	0xbbca7ce9	-0.006179441
201	0xb8935e61	-7.027086e-05
202	0x3bfcd573	0.007715875
203	0xbb7adea3	-0.0038279674
204	0xbb8103f6	-0.0039372398
205	0x3ae0b4c3	0.0017143715
206	0x3b71299c	0.0036798483
207	0x3a4f9d28	0.00079198414
208	0x3b9efa07	0.004851583
209	0xbb2eb694	-0.0026659118
210	0xbb25433e	-0.0025217081
211	0x3b513bb8	0.0031926464
212	0x3cc4617f	0.023972271
213	0x3ad1958b	0.0015990002
214	0xbb3ae0d3	-0.0028515353
215	0xbcaee947	-0.02135147
216	0x3bbde1e4	0.0057947505
217	0xbb7370e0	-0.0037146136
218	0xbb839f25	-0.0040167742
219	0xbbfb14ea	-0.0076624053
220	0xbc45aa1e	-0.012064485
221	0x3ca51a91	0.02015427
222	0xbc2b3c0b	-0.010451327
223	0x3caf6640	0.021411061
224	0xbc9578dc	-0.018246107
225	0xbc4a6a2f	-0.012354418
226	0x3bbdae40	0.0057885945
227	0x3a9b1bbd	0.0011833828
228	0x3b9b9c97	0.0047488916
229	0x3b691c97	0.003557002
230	0xbbdda768	-0.006764341
231	0xbade0ea3	-0.0016941618
232	0x3b156be2	0.00227999
233	0x3bbd9252	0.005785265
234	0x3bcbcba7	0.0062193456
235	0xbac0e683	-0.0014717135
236	0x3b3a1dff	0.0028399227
237	0x3b049d6f	0.002023544
238	0x3b38f612	0.0028222841
239	0x3b100e9d	0.0021981366
240	0xbcb00105	-0.021484861
241	0x3b400da1	0.0029304998
242	0xbb17ad62	-0.0023144116
243	0xbb5bdf29	-0.0033549762
244	0x3ac3737b	0.0014911735
245	0x3a637f77	0.00086783565
246	0xbc7ccc8e	-0.015429629
247	0x3c34fe6b	0.011046986
248	0x3bab15d0	0.005221106
249	0x3ca7dac4	0.020490058
250	0xbc3670d2	-0.011135297
251	0xbcfe3108	-0.03102924
252	0x3bc05665	0.005869674
253	0x3b81c85c	0.0039606523
254	0xbb3a8d6f	-0.0028465649
255	0x3c22efbd	0.009944853

residual_block.1.conv_squeeze.weight f4 [16, 256, 1, 1]
0	0xbb6f1840	-0.003648296
1	0x3baa5fb3	0.0051993965
2	0xb92f5b6f	-0.00016723362
3	0x3b7018aa	0.0036635795
4	0xbb11345f	-0.002215646
5	0x3a481d02	0.0007633717
6	0xba56e609	-0.000819773
7	0xbb48e789	-0.0030655584
8	0xbb134191	-0.00224695
9	0xbaf94fda	-0.001902099
10	0x3b5c1375	0.0033580933
11	0x3a537d05	0.00080676406
12	0x3ad34772	0.0016119315
13	0x3960812a	0.00021410422
14	0xbb19e2c6	-0.0023481115
15	0xba596b7d	-0.000829391
16	0xba550879	-0.00081265677
17	0x3b482c89	0.0030544123
18	0x3ad55dd1	0.001627857
19	0x3a568726	0.0008183591
20	0xbda47954	-0.08030954
21	0x3c05d90c	0.008169424
22	0xbac7c58e	-0.0015241371
23	0xb9b420f8	-0.0003435684
24	0xba34097b	-0.0006867868
25	0xbb558c4f	-0.003258485
26	0x3b79d130	0.003811907
27	0x3af97563	0.0019032176
28	0x3a866a7f	0.0010255127
29	0x399d7885	0.00030035168
30	0x3b614dd4	0.0034378665
31	0xbad34c39	-0.0016120739
32	0xbb1744f3	-0.0023081868
33	0xbd164b11	-0.036692683
34	0xbc3e1319	-0.011601233
35	0x3b8db664	0.004324721
36	0xbad14951	-0.0015967285
37	0x3b096217	0.0020963007
38	0x39c44a58	0.00037439424
39	0x3b5e0454	0.0033877091
40	0x3ccc8b3b	0.024968734
41	0xbb893da9	-0.0041882587
42	0xbb4c8be7	-0.0031211318
43	0x3acb78a8	0.0015523629
44	0xbadcfbc9	-0.0016859706
45	0xbb0efbf5	-0.0021817659
46	0xba5ea1a4	-0.0008492714
47	0x3a68e996	0.00088849047
48	0xbbcf9e50	-0.006336011
49	0x3b3f67ea	0.0029206225
50	0x3b424b00	0.0029646754
51	0x3b5f1be8	0.0034043733
52	0xbbaf4699	-0.005348992
53	0x3a92362f	0.0011155064
54	0x3b3a7719	0.0028452335
55	0x3da231d0	0.07919657
56	0xbb455345	-0.0030109447
57	0x3b04aafd	0.0020243519
58	0x3b3ff66d	0.0029291168
59	0xbb37d63a	-0.0028051273
60	0x3a90dd74	0.0011052326
61	0x3db4c652	0.08826889
62	0xb9bcd30b	-0.00036015394
63	0x3a75fbbb	0.0009383519
64	0xba9940e6	-0.0011692315
65	0x39893388	0.0002616907
66	0x39955bc1	0.00028487857
67	0xbaa77190	-0.0012774933
68	0xbaded6bf	-0.0017001255
69	0xbb7ffcff	-0.003906071
70	0xbc87a06a	-0.016555984
71	0xba8e76b1	-0.0010869113
72	0xb8c85af7	-9.553687e-05
73	0x3db6d23b	0.08926817
74	0x3bc2451e	0.0059286496
75	0x3a03985b	0.0005019956
76	0x3b40b0a1	0.0029402154
77	0x3e58430e	0.2111933
78	0x3b3cacd5	0.002878954
79	0xbcc26987	-0.02373196
80	0xbb089fe8	-0.0020847265
81	0x372c7cf7	1.0281095e-05
82	0x3b2dee5f	0.0026539785
83	0xba748035	-0.00093269657
84	0xb9306325	-0.00016821602
85	0x3b0f542a	0.0021870234
86	0x3a86ecb8	0.0010293936
87	0xbb1a7641	-0.002356902
88	0xb9a9e773	-0.00032406635
89	0x3b6d7352	0.0036232066
90	0xbc29ad68	-0.010356285
91	0x39a15253	0.0003076965
92	0xbb2a5a50	-0.0025993772
93	0xbb4a097a	-0.0030828402
94	0x3a2ff188	0.0006711711
95	0x3b1f4a22	0.0024305661
96	0xbb0c132a	-0.0021373727
97	0xbb682cac	-0.0035427017
98	0xbb55bbe8	-0.0032613222
99	0x3ba9067f	0.005158245
100	0x3af8f420	0.0018993653
101	0x3cdae747	0.02672161
102	0xb92c7d89	-0.00016449964
103	0xbaea7e6f	-0.0017890463
104	0xb952f786	-0.0002011937
105	0x3d3a6601	0.045507435
106	0xbb3ba051	-0.0028629492
107	0xbb1a94ae	-0.0023587155
108	0xbb9de7f9	-0.004818913
109	0xbb64a3fe	-0.0034887786
110	0xbb10b5ed	-0.0022081092
111	0xbbd1dbae	-0.0064043617
112	0xba4a1bbc	-0.0007709821
113	0x3a352f62	0.00069116626
114	0xbb00a029	-0.0019626713
115	0x3aa4c93e	0.0012572182
116	0x3bb2f600	0.0054614544
117	0xbaf673c0	-0.0018802807
118	0xbb3a5cf6	-0.0028436757
119	0xbab99699	-0.0014159261
120	0x3ad1aaf3	0.0015996381
121	0x3aace5f4	0.001319109
122	0xbb942f35	-0.004522229
123	0xbb3c9a8e	-0.0028778645
124	0xbafab4bf	-0.0019127353
125	0x3b656ef7	0.0035008767
126	0xbaa37d72	-0.0012473299
127	0x3b85468e	0.0040672487
128	0xbdd169c6	-0.10225253
129	0x3b622927	0.0034509392
130	0xbba1a5de	-0.004933103
131	0xba41a27f	-0.00073865795
132	0x3bafe6bf	0.0053680832
133	0xbb9cb07f	-0.004781782
134	0xb92f8a90	-0.00016740919
135	0xba57504d	-0.0008213565
136	0x3b15093c	0.00227411
137	0xbaa36968	-0.0012467327
138	0x3bdc2b66	0.0067190407
139	0x3d9dadf3	0.07699194
140	0xbb309c80	-0.002694875
141	0xbbd5dce7	-0.0065265778
142	0x3ac23671	0.001481725
143	0xbe01f53f	-0.1269121
144	0xba95f18c	-0.0011439784
145	0x3ab97ab2	0.0014150946
146	0xbad08927	-0.0015910015
147	0x39b2e37a	0.0003412029
148	0x3b45f82f	0.0030207743
149	0x3a81209c	0.0009851637
150	0x3b52ba4d	0.00321545
151	0xbbb0ea8d	-0.0053990544
152	0x3b019b10	0.0019776262
153	0x3ad3a6ec	0.0016147769
154	0x3b0c6877	0.002142457
155	0x3b052330	0.0020315163
156	0xbba1ad8d	-0.004934019
157	0x3ad3b7dd	0.0016152818
158	0x3b0b1368	0.0021221284
159	0x388687c3	6.4149055e-05
160	0x3a874179	0.0010319195
161	0x3b45e332	0.0030195233
162	0x3b334e21	0.00273598
163	0xbb064e1a	-0.002049333
164	0xbd844139	-0.06457753
165	0x3a88f3bb	0.0010448614
166	0xbac9e639	-0.0015403695
167	0x3b8642a6	0.0040973006
168	0xbb022617	-0.001985913
169	0x3aee7f84	0.0018195962
170	0xbb81ae79	-0.0039575663
171	0x3aebdeef	0.0017995517
172	0xbdfd6d90	-0.12374413
173	0x39bc0f27	0.00035869444
174	0x3ad6f7ff	0.0016400813
175	0x3b406bbc	0.002936109
176	0x3a8babfd	0.0010656115
177	0xb96ac828	-0.00022390543
178	0xbaa3f3b3	-0.0012508541
179	0xbb319896	-0.0027099005
180	0x3abc5cbe	0.0014370901
181	0xbb89de8e	-0.004207439
182	0xba8e7ae6	-0.0010870367
183	0xb9d7747b	-0.0004109478
184	0xbbd94373	-0.006630355
185	0xbb1d538d	-0.00240061
186	0x3b82d36f	0.00399249
187	0xbb5d4829	-0.0033764935
188	0x3a180dea	0.0005800413
189	0xb9ead8e3	-0.0004479355
190	0x3b8694f6	0.004107113
191	0x39844fba	0.00025236403
192	0xbabb48b8	-0.001428864
193	0xba7f2391	-0.0009732778
194	0x3b5406e9	0.0032352752
195	0xbb26ceab	-0.0025452774
196	0x3a7f1c8e	0.0009731733
197	0xba338e7a	-0.0006849539
198	0x3a8daa5f	0.0010808221
199	0xbb4a82a4	-0.0030900622
200	0xba99626f	-0.0011702309
201	0x3b0c15f5	0.0021375392
202	0x3a3d07cb	0.0007210939
203	0x3b2d7498	0.00264672
204	0x3d227d6f	0.039670404
205	0xbb574dca	-0.0032852762
206	0xba953d70	-0.0011386108
207	0xbbaef517	-0.0053392756
208	0x3a347160	0.0006883349
209	0x3b13c431	0.002254736
210	0xba470577	-0.0007592062
211	0x3b5e7974	0.0033946903
212	0x3a554307	0.0008135293
213	0xbbda112b	-0.0066548786
214	0x3a74d2e3	0.0009339286
215	0xbb6f9a05	-0.0036560309
216	0xbb1b2856	-0.0023675165
217	0xbb718e2c	-0.0036858423
218	0x3b4b33fd	0.003100633
219	0x39bd1ca8	0.0003607024
220	0x3ab33c7e	0.0013674644
221	0x3999555b	0.0002924603
222	0xb82a3703	-4.0582392e-05
223	0xb85aeae1	-5.2194e-05
224	0xbb14ffa1	-0.0022735375
225	0x3b69b6fc	0.0035662046
226	0xba9eee6f	-0.0012125502
227	0x3ae91195	0.0017781729
228	0xbb9cc844	-0.0047846157
229	0xbd100a96	-0.035166346
230	0x3ac6529f	0.0015130824
231	0x3944589f	0.0001872503
232	0xbb0420b0	-0.0020161085
233	0x3b8bb9e6	0.004264104
234	0x3b4b30f7	0.0031004527
235	0x3d8aed5a	0.067835525
236	0x3b30acb2	0.0026958403
237	0xb92446a6	-0.00015666577
238	0x3b142c5e	0.0022609453
239	0xbb197013	-0.0023412749
240	0xba2ad3a5	-0.0006516523
241	0xbaf29f13	-0.0018510543
242	0xb951c35a	-0.00020004567
243	0x3b28846c	0.0025713695
244	0x3a77e70e	0.0009456732
245	0x3ddf5ae5	0.10906009
246	0x3b0a0614	0.0021060752
247	0xb92d47d6	-0.00016525327
248	0x399904d2	0.00029186025
249	0xbc3b0179	-0.011413925
250	0xbc00005a	-0.007812584
251	0xb9ba5f1f	-0.00035547555
252	0x3db8c75d	0.090224005
253	0xbe21f0c5	-0.15814503
254	0xbae92afb	-0.0017789298
255	0x3c445385	0.011982803

residual_block.1.conv_squeeze.bias f4 [16]
0	0x3c6b9bd9	0.014380419
1	0xbd4f0873	-0.050545167
2	0x3c375beb	0.011191349
3	0xbcba4e3c	-0.022742383
4	0xbc2286f7	-0.009919873
5	0x3cf7321a	0.030175257
6	0x3b971889	0.004611079
7	0x3b0ba2d6	0.0021306775
8	0xbc528610	-0.012849346
9	0xbcb5796e	-0.022152629
10	0x3c9d95bb	0.019236436
11	0xbc9d2833	-0.019184208
12	0xbcae9ddf	-0.021315513
13	0xbceea3df	-0.029130874
14	0xbd1a14d5	-0.037617523
15	0xbd3f68f3	-0.046730947
